…
snapshot_prefix: "fpn"
average_loss: 100
iter_size: 2
I0717 11:56:39.236155 16526 solver.cpp:81] Creating training net from train_net file: models/pascal_voc/VGG16/FP_Net_end2end/train.prototxt
I0717 11:56:39.238868 16526 net.cpp:49] Initializing net from parameters: 
name: "VGG_ILSVRC_16_layers"
state {
  phase: TRAIN
}
layer {
  name: "input-data"
  type: "Python"
  top: "data"
  top: "im_info"
  top: "gt_boxes"
  python_param {
    module: "roi_data_layer.layer"
    layer: "RoIDataLayer"
    param_str: "\'num_classes\': 21"
  }
}
layer {
  name: "conv1_1"
  type: "Convolution"
  bottom: "data"
  top: "conv1_1"
  param {
    lr_mult: 0
    decay_mult: 0
  }
  param {
    lr_mult: 0
    decay_mult: 0
  }
  convolution_param {
    num_output: 64
    pad: 1
    kernel_size: 3
  }
}
layer {
  name: "relu1_1"
  type: "ReLU"
  bottom: "conv1_1"
  top: "conv1_1"
}
layer {
  name: "conv1_2"
  type: "Convolution"
  bottom: "conv1_1"
  top: "conv1_2"
  param {
    lr_mult: 0
    decay_mult: 0
  }
  param {
    lr_mult: 0
    decay_mult: 0
  }
  convolution_param {
    num_output: 64
    pad: 1
    kernel_size: 3
  }
}
layer {
  name: "relu1_2"
  type: "ReLU"
  bottom: "conv1_2"
  top: "conv1_2"
}
layer {
  name: "pool1"
  type: "Pooling"
  bottom: "conv1_2"
  top: "pool1"
  pooling_param {
    pool: MAX
    kernel_size: 2
    stride: 2
  }
}
layer {
  name: "conv2_1"
  type: "Convolution"
  bottom: "pool1"
  top: "conv2_1"
  param {
    lr_mult: 0
    decay_mult: 0
  }
  param {
    lr_mult: 0
    decay_mult: 0
  }
  convolution_param {
    num_output: 128
    pad: 1
    kernel_size: 3
  }
}
layer {
  name: "relu2_1"
  type: "ReLU"
  bottom: "conv2_1"
  top: "conv2_1"
}
layer {
  name: "conv2_2"
  type: "Convolution"
  bottom: "conv2_1"
  top: "conv2_2"
  param {
    lr_mult: 0
    decay_mult: 0
  }
  param {
    lr_mult: 0
    decay_mult: 0
  }
  convolution_param {
    num_output: 128
    pad: 1
    kernel_size: 3
  }
}
layer {
  name: "relu2_2"
  type: "ReLU"
  bottom: "conv2_2"
  top: "conv2_2"
}
layer {
  name: "pool2"
  type: "Pooling"
  bottom: "conv2_2"
  top: "pool2"
  pooling_param {
    pool: MAX
    kernel_size: 2
    stride: 2
  }
}
layer {
  name: "conv3_1"
  type: "Convolution"
  bottom: "pool2"
  top: "conv3_1"
  param {
    lr_mult: 1
  }
  param {
    lr_mult: 2
  }
  convolution_param {
    num_output: 256
    pad: 1
    kernel_size: 3
  }
}
layer {
  name: "relu3_1"
  type: "ReLU"
  bottom: "conv3_1"
  top: "conv3_1"
}
layer {
  name: "conv3_2"
  type: "Convolution"
  bottom: "conv3_1"
  top: "conv3_2"
  param {
    lr_mult: 1
  }
  param {
    lr_mult: 2
  }
  convolution_param {
    num_output: 256
    pad: 1
    kernel_size: 3
  }
}
layer {
  name: "relu3_2"
  type: "ReLU"
  bottom: "conv3_2"
  top: "conv3_2"
}
layer {
  name: "conv3_3"
  type: "Convolution"
  bottom: "conv3_2"
  top: "conv3_3"
  param {
    lr_mult: 1
  }
  param {
    lr_mult: 2
  }
  convolution_param {
    num_output: 256
    pad: 1
    kernel_size: 3
  }
}
layer {
  name: "relu3_3"
  type: "ReLU"
  bottom: "conv3_3"
  top: "conv3_3"
}
layer {
  name: "pool3"
  type: "Pooling"
  bottom: "conv3_3"
  top: "pool3"
  pooling_param {
    pool: MAX
    kernel_size: 2
    stride: 2
  }
}
layer {
  name: "conv4_1"
  type: "Convolution"
  bottom: "pool3"
  top: "conv4_1"
  param {
    lr_mult: 1
  }
  param {
    lr_mult: 2
  }
  convolution_param {
    num_output: 512
    pad: 1
    kernel_size: 3
  }
}
layer {
  name: "relu4_1"
  type: "ReLU"
  bottom: "conv4_1"
  top: "conv4_1"
}
layer {
  name: "conv4_2"
  type: "Convolution"
  bottom: "conv4_1"
  top: "conv4_2"
  param {
    lr_mult: 1
  }
  param {
    lr_mult: 2
  }
  convolution_param {
    num_output: 512
    pad: 1
    kernel_size: 3
  }
}
layer {
  name: "relu4_2"
  type: "ReLU"
  bottom: "conv4_2"
  top: "conv4_2"
}
layer {
  name: "conv4_3"
  type: "Convolution"
  bottom: "conv4_2"
  top: "conv4_3"
  param {
    lr_mult: 1
  }
  param {
    lr_mult: 2
  }
  convolution_param {
    num_output: 512
    pad: 1
    kernel_size: 3
  }
}
layer {
  name: "relu4_3"
  type: "ReLU"
  bottom: "conv4_3"
  top: "conv4_3"
}
layer {
  name: "pool4"
  type: "Pooling"
  bottom: "conv4_3"
  top: "pool4"
  pooling_param {
    pool: MAX
    kernel_size: 2
    stride: 2
  }
}
layer {
  name: "conv5_1"
  type: "Convolution"
  bottom: "pool4"
  top: "conv5_1"
  param {
    lr_mult: 1
  }
  param {
    lr_mult: 2
  }
  convolution_param {
    num_output: 512
    pad: 1
    kernel_size: 3
  }
}
layer {
  name: "relu5_1"
  type: "ReLU"
  bottom: "conv5_1"
  top: "conv5_1"
}
layer {
  name: "conv5_2"
  type: "Convolution"
  bottom: "conv5_1"
  top: "conv5_2"
  param {
    lr_mult: 1
  }
  param {
    lr_mult: 2
  }
  convolution_param {
    num_output: 512
    pad: 1
    kernel_size: 3
  }
}
layer {
  name: "relu5_2"
  type: "ReLU"
  bottom: "conv5_2"
  top: "conv5_2"
}
layer {
  name: "conv5_3"
  type: "Convolution"
  bottom: "conv5_2"
  top: "conv5_3"
  param {
    lr_mult: 1
  }
  param {
    lr_mult: 2
  }
  convolution_param {
    num_output: 512
    pad: 1
    kernel_size: 3
  }
}
layer {
  name: "relu5_3"
  type: "ReLU"
  bottom: "conv5_3"
  top: "conv5_3"
}
layer {
  name: "newC5"
  type: "Convolution"
  bottom: "conv5_3"
  top: "newC5"
  param {
    lr_mult: 1
  }
  param {
    lr_mult: 2
  }
  convolution_param {
    num_output: 256
    kernel_size: 1
    weight_filler {
      type: "gaussian"
      std: 0.01
    }
    bias_filler {
      type: "constant"
      value: 0.5
    }
  }
}
layer {
  name: "upP5"
  type: "Deconvolution"
  bottom: "newC5"
  top: "upP5"
  param {
    lr_mult: 0
    decay_mult: 0
  }
  convolution_param {
    num_output: 256
    bias_term: false
    group: 256
    weight_filler {
      type: "bilinear"
    }
    pad_h: 1
    pad_w: 1
    kernel_h: 4
    kernel_w: 4
    stride_h: 2
    stride_w: 2
  }
}
layer {
  name: "newC4"
  type: "Convolution"
  bottom: "conv4_3"
  top: "newC4"
  param {
    lr_mult: 1
  }
  param {
    lr_mult: 2
  }
  convolution_param {
    num_output: 256
    kernel_size: 1
    weight_filler {
      type: "gaussian"
      std: 0.01
    }
    bias_filler {
      type: "constant"
      value: 0.5
    }
  }
}
layer {
  name: "upP5crop"
  type: "Crop"
  bottom: "upP5"
  bottom: "newC4"
  top: "upP5crop"
  crop_param {
    axis: 2
    offset: 0
  }
}
layer {
  name: "P4"
  type: "Eltwise"
  bottom: "newC4"
  bottom: "upP5crop"
  top: "P4"
  eltwise_param {
    operation: SUM
  }
}
layer {
  name: "newP4"
  type: "Convolution"
  bottom: "P4"
  top: "newP4"
  param {
    lr_mult: 1
  }
  param {
    lr_mult: 2
  }
  convolution_param {
    num_output: 256
    pad: 1
    kernel_size: 3
    weight_filler {
      type: "gaussian"
      std: 0.01
    }
    bias_filler {
      type: "constant"
      value: 0.5
    }
  }
}
layer {
  name: "upP4"
  type: "Deconvolution"
  bottom: "P4"
  top: "upP4"
  param {
    lr_mult: 0
    decay_mult: 0
  }
  convolution_param {
    num_output: 256
    bias_term: false
    group: 256
    weight_filler {
      type: "bilinear"
    }
    pad_h: 1
    pad_w: 1
    kernel_h: 4
    kernel_w: 4
    stride_h: 2
    stride_w: 2
  }
}
layer {
  name: "newC3"
  type: "Convolution"
  bottom: "conv3_3"
  top: "newC3"
  param {
    lr_mult: 1
  }
  param {
    lr_mult: 2
  }
  convolution_param {
    num_output: 256
    kernel_size: 1
    weight_filler {
      type: "gaussian"
      std: 0.01
    }
    bias_filler {
      type: "constant"
      value: 0.5
    }
  }
}
layer {
  name: "upP4crop"
  type: "Crop"
  bottom: "upP4"
  bottom: "newC3"
  top: "upP4crop"
  crop_param {
    axis: 2
    offset: 0
  }
}
layer {
  name: "P3"
  type: "Eltwise"
  bottom: "newC3"
  bottom: "upP4crop"
  top: "P3"
  eltwise_param {
    operation: SUM
  }
}
layer {
  name: "newP3"
  type: "Convolution"
  bottom: "P3"
  top: "newP3"
  param {
    lr_mult: 1
  }
  param {
    lr_mult: 2
  }
  convolution_param {
    num_output: 256
    pad: 1
    kernel_size: 3
    weight_filler {
      type: "gaussian"
      std: 0.01
    }
    bias_filler {
      type: "constant"
      value: 0.5
    }
  }
}
layer {
  name: "upP3"
  type: "Deconvolution"
  bottom: "P3"
  top: "upP3"
  param {
    lr_mult: 0
    decay_mult: 0
  }
  convolution_param {
    num_output: 256
    bias_term: false
    group: 256
    weight_filler {
      type: "bilinear"
    }
    pad_h: 1
    pad_w: 1
    kernel_h: 4
    kernel_w: 4
    stride_h: 2
    stride_w: 2
  }
}
layer {
  name: "newC2"
  type: "Convolution"
  bottom: "conv2_2"
  top: "newC2"
  param {
    lr_mult: 1
  }
  param {
    lr_mult: 2
  }
  convolution_param {
    num_output: 256
    kernel_size: 1
    weight_filler {
      type: "gaussian"
      std: 0.01
    }
    bias_filler {
      type: "constant"
      value: 0.5
    }
  }
}
layer {
  name: "upP3crop"
  type: "Crop"
  bottom: "upP3"
  bottom: "newC2"
  top: "upP3crop"
  crop_param {
    axis: 2
    offset: 0
  }
}
layer {
  name: "P2"
  type: "Eltwise"
  bottom: "newC2"
  bottom: "upP3crop"
  top: "P2"
  eltwise_param {
    operation: SUM
  }
}
layer {
  name: "newP2"
  type: "Convolution"
  bottom: "P2"
  top: "newP2"
  param {
    lr_mult: 1
  }
  param {
    lr_mult: 2
  }
  convolution_param {
    num_output: 256
    pad: 1
    kernel_size: 3
    weight_filler {
      type: "gaussian"
      std: 0.01
    }
    bias_filler {
      type: "constant"
      value: 0.5
    }
  }
}
layer {
  name: "rpn_conv/3x3/p2"
  type: "Convolution"
  bottom: "newP2"
  top: "rpn/output/p2"
  param {
    lr_mult: 1
  }
  param {
    lr_mult: 2
  }
  convolution_param {
    num_output: 512
    pad: 1
    kernel_size: 3
    stride: 1
    weight_filler {
      type: "gaussian"
      std: 0.01
    }
    bias_filler {
      type: "constant"
      value: 0
    }
  }
}
layer {
  name: "rpn_relu/3x3/p2"
  type: "ReLU"
  bottom: "rpn/output/p2"
  top: "rpn/output/p2"
}
layer {
  name: "rpn_cls_score/p2"
  type: "Convolution"
  bottom: "rpn/output/p2"
  top: "rpn_cls_score/p2"
  param {
    lr_mult: 1
  }
  param {
    lr_mult: 2
  }
  convolution_param {
    num_output: 18
    pad: 0
    kernel_size: 1
    stride: 1
    weight_filler {
      type: "gaussian"
      std: 0.01
    }
    bias_filler {
      type: "constant"
      value: 0
    }
  }
}
layer {
  name: "rpn_bbox_pred/p2"
  type: "Convolution"
  bottom: "rpn/output/p2"
  top: "rpn_bbox_pred/p2"
  param {
    lr_mult: 1
  }
  param {
    lr_mult: 2
  }
  convolution_param {
    num_output: 36
    pad: 0
    kernel_size: 1
    stride: 1
    weight_filler {
      type: "gaussian"
      std: 0.01
    }
    bias_filler {
      type: "constant"
      value: 0
    }
  }
}
layer {
  name: "rpn_cls_score_reshape/p2"
  type: "Reshape"
  bottom: "rpn_cls_score/p2"
  top: "rpn_cls_score_reshape/p2"
  reshape_param {
    shape {
      dim: 0
      dim: 2
      dim: -1
      dim: 0
    }
  }
}
layer {
  name: "rpn-data/p2"
  type: "Python"
  bottom: "rpn_cls_score/p2"
  bottom: "gt_boxes"
  bottom: "im_info"
  bottom: "data"
  top: "rpn_labels/p2"
  top: "rpn_bbox_targets/p2"
  top: "rpn_bbox_inside_weights/p2"
  top: "rpn_bbox_outside_weights/p2"
  python_param {
    module: "rpn.anchor_target_layer"
    layer: "AnchorTargetLayer"
    param_str: "\'feat_stride\': 2"
  }
}
layer {
  name: "rpn_loss_cls/p2"
  type: "SoftmaxWithLoss"
  bottom: "rpn_cls_score_reshape/p2"
  bottom: "rpn_labels/p2"
  top: "rpn_cls_loss/p2"
  loss_weight: 1
  propagate_down: true
  propagate_down: false
  loss_param {
    ignore_label: -1
    normalize: true
  }
}
layer {
  name: "rpn_loss_bbox/p2"
  type: "SmoothL1Loss"
  bottom: "rpn_bbox_pred/p2"
  bottom: "rpn_bbox_targets/p2"
  bottom: "rpn_bbox_inside_weights/p2"
  bottom: "rpn_bbox_outside_weights/p2"
  top: "rpn_loss_bbox/p2"
  loss_weight: 1
  smooth_l1_loss_param {
    sigma: 3
  }
}
layer {
  name: "rpn_cls_prob/p2"
  type: "Softmax"
  bottom: "rpn_cls_score_reshape/p2"
  top: "rpn_cls_prob/p2"
}
layer {
  name: "rpn_cls_prob_reshape/p2"
  type: "Reshape"
  bottom: "rpn_cls_prob/p2"
  top: "rpn_cls_prob_reshape/p2"
  reshape_param {
    shape {
      dim: 0
      dim: 18
      dim: -1
      dim: 0
    }
  }
}
layer {
  name: "proposal/p2"
  type: "Python"
  bottom: "rpn_cls_prob_reshape/p2"
  bottom: "rpn_bbox_pred/p2"
  bottom: "im_info"
  top: "rpn_rois/p2"
  python_param {
    module: "rpn.proposal_layer"
    layer: "ProposalLayer"
    param_str: "\'feat_stride\': 2"
  }
}
layer {
  name: "rpn_conv/3x3/p3"
  type: "Convolution"
  bottom: "newP3"
  top: "rpn/output/p3"
  param {
    lr_mult: 1
  }
  param {
    lr_mult: 2
  }
  convolution_param {
    num_output: 512
    pad: 1
    kernel_size: 3
    stride: 1
    weight_filler {
      type: "gaussian"
      std: 0.01
    }
    bias_filler {
      type: "constant"
      value: 0
    }
  }
}
layer {
  name: "rpn_relu/3x3/p3"
  type: "ReLU"
  bottom: "rpn/output/p3"
  top: "rpn/output/p3"
}
layer {
  name: "rpn_cls_score/p3"
  type: "Convolution"
  bottom: "rpn/output/p3"
  top: "rpn_cls_score/p3"
  param {
    lr_mult: 1
  }
  param {
    lr_mult: 2
  }
  convolution_param {
    num_output: 18
    pad: 0
    kernel_size: 1
    stride: 1
    weight_filler {
      type: "gaussian"
      std: 0.01
    }
    bias_filler {
      type: "constant"
      value: 0
    }
  }
}
layer {
  name: "rpn_bbox_pred/p3"
  type: "Convolution"
  bottom: "rpn/output/p3"
  top: "rpn_bbox_pred/p3"
  param {
    lr_mult: 1
  }
  param {
    lr_mult: 2
  }
  convolution_param {
    num_output: 36
    pad: 0
    kernel_size: 1
    stride: 1
    weight_filler {
      type: "gaussian"
      std: 0.01
    }
    bias_filler {
      type: "constant"
      value: 0
    }
  }
}
layer {
  name: "rpn_cls_score_reshape/p3"
  type: "Reshape"
  bottom: "rpn_cls_score/p3"
  top: "rpn_cls_score_reshape/p3"
  reshape_param {
    shape {
      dim: 0
      dim: 2
      dim: -1
      dim: 0
    }
  }
}
layer {
  name: "rpn-data/p3"
  type: "Python"
  bottom: "rpn_cls_score/p3"
  bottom: "gt_boxes"
  bottom: "im_info"
  bottom: "data"
  top: "rpn_labels/p3"
  top: "rpn_bbox_targets/p3"
  top: "rpn_bbox_inside_weights/p3"
  top: "rpn_bbox_outside_weights/p3"
  python_param {
    module: "rpn.anchor_target_layer"
    layer: "AnchorTargetLayer"
    param_str: "\'feat_stride\': 4"
  }
}
layer {
  name: "rpn_loss_cls/p3"
  type: "SoftmaxWithLoss"
  bottom: "rpn_cls_score_reshape/p3"
  bottom: "rpn_labels/p3"
  top: "rpn_cls_loss/p3"
  loss_weight: 1
  propagate_down: true
  propagate_down: false
  loss_param {
    ignore_label: -1
    normalize: true
  }
}
layer {
  name: "rpn_loss_bbox/p3"
  type: "SmoothL1Loss"
  bottom: "rpn_bbox_pred/p3"
  bottom: "rpn_bbox_targets/p3"
  bottom: "rpn_bbox_inside_weights/p3"
  bottom: "rpn_bbox_outside_weights/p3"
  top: "rpn_loss_bbox/p3"
  loss_weight: 1
  smooth_l1_loss_param {
    sigma: 3
  }
}
layer {
  name: "rpn_cls_prob/p3"
  type: "Softmax"
  bottom: "rpn_cls_score_reshape/p3"
  top: "rpn_cls_prob/p3"
}
layer {
  name: "rpn_cls_prob_reshape/p3"
  type: "Reshape"
  bottom: "rpn_cls_prob/p3"
  top: "rpn_cls_prob_reshape/p3"
  reshape_param {
    shape {
      dim: 0
      dim: 18
      dim: -1
      dim: 0
    }
  }
}
layer {
  name: "proposal/p3"
  type: "Python"
  bottom: "rpn_cls_prob_reshape/p3"
  bottom: "rpn_bbox_pred/p3"
  bottom: "im_info"
  top: "rpn_rois/p3"
  python_param {
    module: "rpn.proposal_layer"
    layer: "ProposalLayer"
    param_str: "\'feat_stride\': 4"
  }
}
layer {
  name: "rpn_conv/3x3/p4"
  type: "Convolution"
  bottom: "newP4"
  top: "rpn/output/p4"
  param {
    lr_mult: 1
  }
  param {
    lr_mult: 2
  }
  convolution_param {
    num_output: 512
    pad: 1
    kernel_size: 3
    stride: 1
    weight_filler {
      type: "gaussian"
      std: 0.01
    }
    bias_filler {
      type: "constant"
      value: 0
    }
  }
}
layer {
  name: "rpn_relu/3x3/p4"
  type: "ReLU"
  bottom: "rpn/output/p4"
  top: "rpn/output/p4"
}
layer {
  name: "rpn_cls_score/p4"
  type: "Convolution"
  bottom: "rpn/output/p4"
  top: "rpn_cls_score/p4"
  param {
    lr_mult: 1
  }
  param {
    lr_mult: 2
  }
  convolution_param {
    num_output: 18
    pad: 0
    kernel_size: 1
    stride: 1
    weight_filler {
      type: "gaussian"
      std: 0.01
    }
    bias_filler {
      type: "constant"
      value: 0
    }
  }
}
layer {
  name: "rpn_bbox_pred/p4"
  type: "Convolution"
  bottom: "rpn/output/p4"
  top: "rpn_bbox_pred/p4"
  param {
    lr_mult: 1
  }
  param {
    lr_mult: 2
  }
  convolution_param {
    num_output: 36
    pad: 0
    kernel_size: 1
    stride: 1
    weight_filler {
      type: "gaussian"
      std: 0.01
    }
    bias_filler {
      type: "constant"
      value: 0
    }
  }
}
layer {
  name: "rpn_cls_score_reshape/p4"
  type: "Reshape"
  bottom: "rpn_cls_score/p4"
  top: "rpn_cls_score_reshape/p4"
  reshape_param {
    shape {
      dim: 0
      dim: 2
      dim: -1
      dim: 0
    }
  }
}
layer {
  name: "rpn-data/p4"
  type: "Python"
  bottom: "rpn_cls_score/p4"
  bottom: "gt_boxes"
  bottom: "im_info"
  bottom: "data"
  top: "rpn_labels/p4"
  top: "rpn_bbox_targets/p4"
  top: "rpn_bbox_inside_weights/p4"
  top: "rpn_bbox_outside_weights/p4"
  python_param {
    module: "rpn.anchor_target_layer"
    layer: "AnchorTargetLayer"
    param_str: "\'feat_stride\': 8"
  }
}
layer {
  name: "rpn_loss_cls/p4"
  type: "SoftmaxWithLoss"
  bottom: "rpn_cls_score_reshape/p4"
  bottom: "rpn_labels/p4"
  top: "rpn_cls_loss/p4"
  loss_weight: 1
  propagate_down: true
  propagate_down: false
  loss_param {
    ignore_label: -1
    normalize: true
  }
}
layer {
  name: "rpn_loss_bbox/p4"
  type: "SmoothL1Loss"
  bottom: "rpn_bbox_pred/p4"
  bottom: "rpn_bbox_targets/p4"
  bottom: "rpn_bbox_inside_weights/p4"
  bottom: "rpn_bbox_outside_weights/p4"
  top: "rpn_loss_bbox/p4"
  loss_weight: 1
  smooth_l1_loss_param {
    sigma: 3
  }
}
layer {
  name: "rpn_cls_prob/p4"
  type: "Softmax"
  bottom: "rpn_cls_score_reshape/p4"
  top: "rpn_cls_prob/p4"
}
layer {
  name: "rpn_cls_prob_reshape/p4"
  type: "Reshape"
  bottom: "rpn_cls_prob/p4"
  top: "rpn_cls_prob_reshape/p4"
  reshape_param {
    shape {
      dim: 0
      dim: 18
      dim: -1
      dim: 0
    }
  }
}
layer {
  name: "proposal/p4"
  type: "Python"
  bottom: "rpn_cls_prob_reshape/p4"
  bottom: "rpn_bbox_pred/p4"
  bottom: "im_info"
  top: "rpn_rois/p4"
  python_param {
    module: "rpn.proposal_layer"
    layer: "ProposalLayer"
    param_str: "\'feat_stride\': 8"
  }
}
layer {
  name: "rpn_conv/3x3/p5"
  type: "Convolution"
  bottom: "newC5"
  top: "rpn/output/p5"
  param {
    lr_mult: 1
  }
  param {
    lr_mult: 2
  }
  convolution_param {
    num_output: 512
    pad: 1
    kernel_size: 3
    stride: 1
    weight_filler {
      type: "gaussian"
      std: 0.01
    }
    bias_filler {
      type: "constant"
      value: 0
    }
  }
}
layer {
  name: "rpn_relu/3x3/p5"
  type: "ReLU"
  bottom: "rpn/output/p5"
  top: "rpn/output/p5"
}
layer {
  name: "rpn_cls_score/p5"
  type: "Convolution"
  bottom: "rpn/output/p5"
  top: "rpn_cls_score/p5"
  param {
    lr_mult: 1
  }
  param {
    lr_mult: 2
  }
  convolution_param {
    num_output: 18
    pad: 0
    kernel_size: 1
    stride: 1
    weight_filler {
      type: "gaussian"
      std: 0.01
    }
    bias_filler {
      type: "constant"
      value: 0
    }
  }
}
layer {
  name: "rpn_bbox_pred/p5"
  type: "Convolution"
  bottom: "rpn/output/p5"
  top: "rpn_bbox_pred/p5"
  param {
    lr_mult: 1
  }
  param {
    lr_mult: 2
  }
  convolution_param {
    num_output: 36
    pad: 0
    kernel_size: 1
    stride: 1
    weight_filler {
      type: "gaussian"
      std: 0.01
    }
    bias_filler {
      type: "constant"
      value: 0
    }
  }
}
layer {
  name: "rpn_cls_score_reshape/p5"
  type: "Reshape"
  bottom: "rpn_cls_score/p5"
  top: "rpn_cls_score_reshape/p5"
  reshape_param {
    shape {
      dim: 0
      dim: 2
      dim: -1
      dim: 0
    }
  }
}
layer {
  name: "rpn-data/p5"
  type: "Python"
  bottom: "rpn_cls_score/p5"
  bottom: "gt_boxes"
  bottom: "im_info"
  bottom: "data"
  top: "rpn_labels/p5"
  top: "rpn_bbox_targets/p5"
  top: "rpn_bbox_inside_weights/p5"
  top: "rpn_bbox_outside_weights/p5"
  python_param {
    module: "rpn.anchor_target_layer"
    layer: "AnchorTargetLayer"
    param_str: "\'feat_stride\': 16"
  }
}
layer {
  name: "rpn_loss_cls/p5"
  type: "SoftmaxWithLoss"
  bottom: "rpn_cls_score_reshape/p5"
  bottom: "rpn_labels/p5"
  top: "rpn_cls_loss/p5"
  loss_weight: 1
  propagate_down: true
  propagate_down: false
  loss_param {
    ignore_label: -1
    normalize: true
  }
}
layer {
  name: "rpn_loss_bbox/p5"
  type: "SmoothL1Loss"
  bottom: "rpn_bbox_pred/p5"
  bottom: "rpn_bbox_targets/p5"
  bottom: "rpn_bbox_inside_weights/p5"
  bottom: "rpn_bbox_outside_weights/p5"
  top: "rpn_loss_bbox/p5"
  loss_weight: 1
  smooth_l1_loss_param {
    sigma: 3
  }
}
layer {
  name: "rpn_cls_prob/p5"
  type: "Softmax"
  bottom: "rpn_cls_score_reshape/p5"
  top: "rpn_cls_prob/p5"
}
layer {
  name: "rpn_cls_prob_reshape/p5"
  type: "Reshape"
  bottom: "rpn_cls_prob/p5"
  top: "rpn_cls_prob_reshape/p5"
  reshape_param {
    shape {
      dim: 0
      dim: 18
      dim: -1
      dim: 0
    }
  }
}
layer {
  name: "proposal/p5"
  type: "Python"
  bottom: "rpn_cls_prob_reshape/p5"
  bottom: "rpn_bbox_pred/p5"
  bottom: "im_info"
  top: "rpn_rois/p5"
  python_param {
    module: "rpn.proposal_layer"
    layer: "ProposalLayer"
    param_str: "\'feat_stride\': 16"
  }
}
layer {
  name: "roi-data"
  type: "Python"
  bottom: "rpn_rois/p2"
  bottom: "rpn_rois/p3"
  bottom: "rpn_rois/p4"
  bottom: "rpn_rois/p5"
  bottom: "gt_boxes"
  top: "rois/p2"
  top: "rois/p3"
  top: "rois/p4"
  top: "rois/p5"
  top: "labels"
  top: "bbox_targets"
  top: "bbox_inside_weights"
  top: "bbox_outside_weights"
  python_param {
    module: "rpn.proposal_target_layer"
    layer: "ProposalTargetLayer"
    param_str: "\'num_classes\': 21"
  }
}
layer {
  name: "roi_pool/p2"
  type: "ROIPooling"
  bottom: "newP2"
  bottom: "rois/p2"
  top: "roi_pool/p2"
  roi_pooling_param {
    pooled_h: 7
    pooled_w: 7
    spatial_scale: 0.5
  }
}
layer {
  name: "roi_pool/p3"
  type: "ROIPooling"
  bottom: "newP3"
  bottom: "rois/p3"
  top: "roi_pool/p3"
  roi_pooling_param {
    pooled_h: 7
    pooled_w: 7
    spatial_scale: 0.25
  }
}
layer {
  name: "roi_pool/p4"
  type: "ROIPooling"
  bottom: "newP4"
  bottom: "rois/p4"
  top: "roi_pool/p4"
  roi_pooling_param {
    pooled_h: 7
    pooled_w: 7
    spatial_scale: 0.125
  }
}
layer {
  name: "roi_pool/p5"
  type: "ROIPooling"
  bottom: "newC5"
  bottom: "rois/p5"
  top: "roi_pool/p5"
  roi_pooling_param {
    pooled_h: 7
    pooled_w: 7
    spatial_scale: 0.0625
  }
}
layer {
  name: "all_pool"
  type: "Concat"
  bottom: "roi_pool/p2"
  bottom: "roi_pool/p3"
  bottom: "roi_pool/p4"
  bottom: "roi_pool/p5"
  top: "rcnn_pool"
  concat_param {
    axis: 0
  }
}
layer {
  name: "rcnn_fc6"
  type: "InnerProduct"
  bottom: "rcnn_pool"
  top: "rcnn_fc6"
  param {
    lr_mult: 1
  }
  param {
    lr_mult: 2
  }
  inner_product_param {
    num_output: 4096
    weight_filler {
      type: "xavier"
    }
    bias_filler {
      type: "constant"
    }
  }
}
layer {
  name: "relu6"
  type: "ReLU"
  bottom: "rcnn_fc6"
  top: "rcnn_fc6"
}
layer {
  name: "drop6"
  type: "Dropout"
  bottom: "rcnn_fc6"
  top: "rcnn_fc6"
  dropout_param {
    dropout_ratio: 0.5
  }
}
layer {
  name: "fc7"
  type: "InnerProduct"
  bottom: "rcnn_fc6"
  top: "fc7"
  param {
    lr_mult: 1
  }
  param {
    lr_mult: 2
  }
  inner_product_param {
    num_output: 4096
    weight_filler {
      type: "xavier"
    }
    bias_filler {
      type: "constant"
    }
  }
}
layer {
  name: "relu7"
  type: "ReLU"
  bottom: "fc7"
  top: "fc7"
}
layer {
  name: "drop7"
  type: "Dropout"
  bottom: "fc7"
  top: "fc7"
  dropout_param {
    dropout_ratio: 0.5
  }
}
layer {
  name: "cls_score"
  type: "InnerProduct"
  bottom: "fc7"
  top: "cls_score"
  param {
    lr_mult: 1
  }
  param {
    lr_mult: 2
  }
  inner_product_param {
    num_output: 21
    weight_filler {
      type: "gaussian"
      std: 0.01
    }
    bias_filler {
      type: "constant"
      value: 0
    }
  }
}
layer {
  name: "bbox_pred"
  type: "InnerProduct"
  bottom: "fc7"
  top: "bbox_pred"
  param {
    lr_mult: 1
  }
  param {
    lr_mult: 2
  }
  inner_product_param {
    num_output: 84
    weight_filler {
      type: "gaussian"
      std: 0.001
    }
    bias_filler {
      type: "constant"
      value: 0
    }
  }
}
layer {
  name: "loss_cls"
  type: "SoftmaxWithLoss"
  bottom: "cls_score"
  bottom: "labels"
  top: "loss_cls"
  loss_weight: 1
  propagate_down: true
  propagate_down: false
}
layer {
  name: "loss_bbox"
  type: "SmoothL1Loss"
  bottom: "bbox_pred"
  bottom: "bbox_targets"
  bottom: "bbox_inside_weights"
  bottom: "bbox_outside_weights"
  top: "loss_bbox"
  loss_weight: 1
}
I0717 11:56:39.239495 16526 layer_factory.hpp:77] Creating layer input-data
I0717 11:56:39.241727 16526 net.cpp:106] Creating Layer input-data
I0717 11:56:39.241744 16526 net.cpp:411] input-data -> data
I0717 11:56:39.241757 16526 net.cpp:411] input-data -> im_info
I0717 11:56:39.241763 16526 net.cpp:411] input-data -> gt_boxes
RoiDataLayer: name_to_top: {'gt_boxes': 2, 'data': 0, 'im_info': 1}
I0717 11:56:39.255478 16526 net.cpp:150] Setting up input-data
I0717 11:56:39.255499 16526 net.cpp:157] Top shape: 1 3 600 1000 (1800000)
I0717 11:56:39.255506 16526 net.cpp:157] Top shape: 1 3 (3)
I0717 11:56:39.255509 16526 net.cpp:157] Top shape: 1 4 (4)
I0717 11:56:39.255512 16526 net.cpp:165] Memory required for data: 7200028
I0717 11:56:39.255517 16526 layer_factory.hpp:77] Creating layer data_input-data_0_split
I0717 11:56:39.255527 16526 net.cpp:106] Creating Layer data_input-data_0_split
I0717 11:56:39.255530 16526 net.cpp:454] data_input-data_0_split <- data
I0717 11:56:39.255538 16526 net.cpp:411] data_input-data_0_split -> data_input-data_0_split_0
I0717 11:56:39.255544 16526 net.cpp:411] data_input-data_0_split -> data_input-data_0_split_1
I0717 11:56:39.255551 16526 net.cpp:411] data_input-data_0_split -> data_input-data_0_split_2
I0717 11:56:39.255556 16526 net.cpp:411] data_input-data_0_split -> data_input-data_0_split_3
I0717 11:56:39.255560 16526 net.cpp:411] data_input-data_0_split -> data_input-data_0_split_4
I0717 11:56:39.255625 16526 net.cpp:150] Setting up data_input-data_0_split
I0717 11:56:39.255637 16526 net.cpp:157] Top shape: 1 3 600 1000 (1800000)
I0717 11:56:39.255642 16526 net.cpp:157] Top shape: 1 3 600 1000 (1800000)
I0717 11:56:39.255645 16526 net.cpp:157] Top shape: 1 3 600 1000 (1800000)
I0717 11:56:39.255650 16526 net.cpp:157] Top shape: 1 3 600 1000 (1800000)
I0717 11:56:39.255653 16526 net.cpp:157] Top shape: 1 3 600 1000 (1800000)
I0717 11:56:39.255656 16526 net.cpp:165] Memory required for data: 43200028
I0717 11:56:39.255659 16526 layer_factory.hpp:77] Creating layer im_info_input-data_1_split
I0717 11:56:39.255664 16526 net.cpp:106] Creating Layer im_info_input-data_1_split
I0717 11:56:39.255667 16526 net.cpp:454] im_info_input-data_1_split <- im_info
I0717 11:56:39.255676 16526 net.cpp:411] im_info_input-data_1_split -> im_info_input-data_1_split_0
I0717 11:56:39.255681 16526 net.cpp:411] im_info_input-data_1_split -> im_info_input-data_1_split_1
I0717 11:56:39.255687 16526 net.cpp:411] im_info_input-data_1_split -> im_info_input-data_1_split_2
I0717 11:56:39.255694 16526 net.cpp:411] im_info_input-data_1_split -> im_info_input-data_1_split_3
I0717 11:56:39.255698 16526 net.cpp:411] im_info_input-data_1_split -> im_info_input-data_1_split_4
I0717 11:56:39.255703 16526 net.cpp:411] im_info_input-data_1_split -> im_info_input-data_1_split_5
I0717 11:56:39.255707 16526 net.cpp:411] im_info_input-data_1_split -> im_info_input-data_1_split_6
I0717 11:56:39.255712 16526 net.cpp:411] im_info_input-data_1_split -> im_info_input-data_1_split_7
I0717 11:56:39.255795 16526 net.cpp:150] Setting up im_info_input-data_1_split
I0717 11:56:39.255806 16526 net.cpp:157] Top shape: 1 3 (3)
I0717 11:56:39.255810 16526 net.cpp:157] Top shape: 1 3 (3)
I0717 11:56:39.255813 16526 net.cpp:157] Top shape: 1 3 (3)
I0717 11:56:39.255817 16526 net.cpp:157] Top shape: 1 3 (3)
I0717 11:56:39.255820 16526 net.cpp:157] Top shape: 1 3 (3)
I0717 11:56:39.255825 16526 net.cpp:157] Top shape: 1 3 (3)
I0717 11:56:39.255827 16526 net.cpp:157] Top shape: 1 3 (3)
I0717 11:56:39.255831 16526 net.cpp:157] Top shape: 1 3 (3)
I0717 11:56:39.255833 16526 net.cpp:165] Memory required for data: 43200124
I0717 11:56:39.255836 16526 layer_factory.hpp:77] Creating layer gt_boxes_input-data_2_split
I0717 11:56:39.255841 16526 net.cpp:106] Creating Layer gt_boxes_input-data_2_split
I0717 11:56:39.255844 16526 net.cpp:454] gt_boxes_input-data_2_split <- gt_boxes
I0717 11:56:39.255851 16526 net.cpp:411] gt_boxes_input-data_2_split -> gt_boxes_input-data_2_split_0
I0717 11:56:39.255856 16526 net.cpp:411] gt_boxes_input-data_2_split -> gt_boxes_input-data_2_split_1
I0717 11:56:39.255861 16526 net.cpp:411] gt_boxes_input-data_2_split -> gt_boxes_input-data_2_split_2
I0717 11:56:39.255867 16526 net.cpp:411] gt_boxes_input-data_2_split -> gt_boxes_input-data_2_split_3
I0717 11:56:39.255873 16526 net.cpp:411] gt_boxes_input-data_2_split -> gt_boxes_input-data_2_split_4
I0717 11:56:39.255925 16526 net.cpp:150] Setting up gt_boxes_input-data_2_split
I0717 11:56:39.255935 16526 net.cpp:157] Top shape: 1 4 (4)
I0717 11:56:39.255939 16526 net.cpp:157] Top shape: 1 4 (4)
I0717 11:56:39.255944 16526 net.cpp:157] Top shape: 1 4 (4)
I0717 11:56:39.255946 16526 net.cpp:157] Top shape: 1 4 (4)
I0717 11:56:39.255950 16526 net.cpp:157] Top shape: 1 4 (4)
I0717 11:56:39.255952 16526 net.cpp:165] Memory required for data: 43200204
I0717 11:56:39.255956 16526 layer_factory.hpp:77] Creating layer conv1_1
I0717 11:56:39.255967 16526 net.cpp:106] Creating Layer conv1_1
I0717 11:56:39.255971 16526 net.cpp:454] conv1_1 <- data_input-data_0_split_0
I0717 11:56:39.255976 16526 net.cpp:411] conv1_1 -> conv1_1
I0717 11:56:39.524008 16526 net.cpp:150] Setting up conv1_1
I0717 11:56:39.524055 16526 net.cpp:157] Top shape: 1 64 600 1000 (38400000)
I0717 11:56:39.524060 16526 net.cpp:165] Memory required for data: 196800204
I0717 11:56:39.524082 16526 layer_factory.hpp:77] Creating layer relu1_1
I0717 11:56:39.524097 16526 net.cpp:106] Creating Layer relu1_1
I0717 11:56:39.524103 16526 net.cpp:454] relu1_1 <- conv1_1
I0717 11:56:39.524111 16526 net.cpp:397] relu1_1 -> conv1_1 (in-place)
I0717 11:56:39.524945 16526 net.cpp:150] Setting up relu1_1
I0717 11:56:39.524963 16526 net.cpp:157] Top shape: 1 64 600 1000 (38400000)
I0717 11:56:39.524967 16526 net.cpp:165] Memory required for data: 350400204
I0717 11:56:39.524972 16526 layer_factory.hpp:77] Creating layer conv1_2
I0717 11:56:39.524982 16526 net.cpp:106] Creating Layer conv1_2
I0717 11:56:39.524987 16526 net.cpp:454] conv1_2 <- conv1_1
I0717 11:56:39.524993 16526 net.cpp:411] conv1_2 -> conv1_2
I0717 11:56:39.529422 16526 net.cpp:150] Setting up conv1_2
I0717 11:56:39.529443 16526 net.cpp:157] Top shape: 1 64 600 1000 (38400000)
I0717 11:56:39.529448 16526 net.cpp:165] Memory required for data: 504000204
I0717 11:56:39.529458 16526 layer_factory.hpp:77] Creating layer relu1_2
I0717 11:56:39.529464 16526 net.cpp:106] Creating Layer relu1_2
I0717 11:56:39.529469 16526 net.cpp:454] relu1_2 <- conv1_2
I0717 11:56:39.529474 16526 net.cpp:397] relu1_2 -> conv1_2 (in-place)
I0717 11:56:39.529657 16526 net.cpp:150] Setting up relu1_2
I0717 11:56:39.529672 16526 net.cpp:157] Top shape: 1 64 600 1000 (38400000)
I0717 11:56:39.529676 16526 net.cpp:165] Memory required for data: 657600204
I0717 11:56:39.529680 16526 layer_factory.hpp:77] Creating layer pool1
I0717 11:56:39.529693 16526 net.cpp:106] Creating Layer pool1
I0717 11:56:39.529697 16526 net.cpp:454] pool1 <- conv1_2
I0717 11:56:39.529703 16526 net.cpp:411] pool1 -> pool1
I0717 11:56:39.529752 16526 net.cpp:150] Setting up pool1
I0717 11:56:39.529764 16526 net.cpp:157] Top shape: 1 64 300 500 (9600000)
I0717 11:56:39.529768 16526 net.cpp:165] Memory required for data: 696000204
I0717 11:56:39.529772 16526 layer_factory.hpp:77] Creating layer conv2_1
I0717 11:56:39.529778 16526 net.cpp:106] Creating Layer conv2_1
I0717 11:56:39.529783 16526 net.cpp:454] conv2_1 <- pool1
I0717 11:56:39.529788 16526 net.cpp:411] conv2_1 -> conv2_1
I0717 11:56:39.532943 16526 net.cpp:150] Setting up conv2_1
I0717 11:56:39.532963 16526 net.cpp:157] Top shape: 1 128 300 500 (19200000)
I0717 11:56:39.532968 16526 net.cpp:165] Memory required for data: 772800204
I0717 11:56:39.532979 16526 layer_factory.hpp:77] Creating layer relu2_1
I0717 11:56:39.532984 16526 net.cpp:106] Creating Layer relu2_1
I0717 11:56:39.532989 16526 net.cpp:454] relu2_1 <- conv2_1
I0717 11:56:39.532994 16526 net.cpp:397] relu2_1 -> conv2_1 (in-place)
I0717 11:56:39.533169 16526 net.cpp:150] Setting up relu2_1
I0717 11:56:39.533185 16526 net.cpp:157] Top shape: 1 128 300 500 (19200000)
I0717 11:56:39.533188 16526 net.cpp:165] Memory required for data: 849600204
I0717 11:56:39.533192 16526 layer_factory.hpp:77] Creating layer conv2_2
I0717 11:56:39.533200 16526 net.cpp:106] Creating Layer conv2_2
I0717 11:56:39.533205 16526 net.cpp:454] conv2_2 <- conv2_1
I0717 11:56:39.533210 16526 net.cpp:411] conv2_2 -> conv2_2
I0717 11:56:39.536923 16526 net.cpp:150] Setting up conv2_2
I0717 11:56:39.536944 16526 net.cpp:157] Top shape: 1 128 300 500 (19200000)
I0717 11:56:39.536948 16526 net.cpp:165] Memory required for data: 926400204
I0717 11:56:39.536955 16526 layer_factory.hpp:77] Creating layer relu2_2
I0717 11:56:39.536962 16526 net.cpp:106] Creating Layer relu2_2
I0717 11:56:39.536967 16526 net.cpp:454] relu2_2 <- conv2_2
I0717 11:56:39.536973 16526 net.cpp:397] relu2_2 -> conv2_2 (in-place)
I0717 11:56:39.537853 16526 net.cpp:150] Setting up relu2_2
I0717 11:56:39.537873 16526 net.cpp:157] Top shape: 1 128 300 500 (19200000)
I0717 11:56:39.537876 16526 net.cpp:165] Memory required for data: 1003200204
I0717 11:56:39.537880 16526 layer_factory.hpp:77] Creating layer conv2_2_relu2_2_0_split
I0717 11:56:39.537888 16526 net.cpp:106] Creating Layer conv2_2_relu2_2_0_split
I0717 11:56:39.537891 16526 net.cpp:454] conv2_2_relu2_2_0_split <- conv2_2
I0717 11:56:39.537896 16526 net.cpp:411] conv2_2_relu2_2_0_split -> conv2_2_relu2_2_0_split_0
I0717 11:56:39.537905 16526 net.cpp:411] conv2_2_relu2_2_0_split -> conv2_2_relu2_2_0_split_1
I0717 11:56:39.537947 16526 net.cpp:150] Setting up conv2_2_relu2_2_0_split
I0717 11:56:39.537959 16526 net.cpp:157] Top shape: 1 128 300 500 (19200000)
I0717 11:56:39.537963 16526 net.cpp:157] Top shape: 1 128 300 500 (19200000)
I0717 11:56:39.537967 16526 net.cpp:165] Memory required for data: 1156800204
I0717 11:56:39.537971 16526 layer_factory.hpp:77] Creating layer pool2
I0717 11:56:39.537977 16526 net.cpp:106] Creating Layer pool2
I0717 11:56:39.537982 16526 net.cpp:454] pool2 <- conv2_2_relu2_2_0_split_0
I0717 11:56:39.537987 16526 net.cpp:411] pool2 -> pool2
I0717 11:56:39.538028 16526 net.cpp:150] Setting up pool2
I0717 11:56:39.538038 16526 net.cpp:157] Top shape: 1 128 150 250 (4800000)
I0717 11:56:39.538041 16526 net.cpp:165] Memory required for data: 1176000204
I0717 11:56:39.538045 16526 layer_factory.hpp:77] Creating layer conv3_1
I0717 11:56:39.538053 16526 net.cpp:106] Creating Layer conv3_1
I0717 11:56:39.538058 16526 net.cpp:454] conv3_1 <- pool2
I0717 11:56:39.538063 16526 net.cpp:411] conv3_1 -> conv3_1
I0717 11:56:39.541342 16526 net.cpp:150] Setting up conv3_1
I0717 11:56:39.541363 16526 net.cpp:157] Top shape: 1 256 150 250 (9600000)
I0717 11:56:39.541368 16526 net.cpp:165] Memory required for data: 1214400204
I0717 11:56:39.541379 16526 layer_factory.hpp:77] Creating layer relu3_1
I0717 11:56:39.541388 16526 net.cpp:106] Creating Layer relu3_1
I0717 11:56:39.541390 16526 net.cpp:454] relu3_1 <- conv3_1
I0717 11:56:39.541395 16526 net.cpp:397] relu3_1 -> conv3_1 (in-place)
I0717 11:56:39.541591 16526 net.cpp:150] Setting up relu3_1
I0717 11:56:39.541605 16526 net.cpp:157] Top shape: 1 256 150 250 (9600000)
I0717 11:56:39.541610 16526 net.cpp:165] Memory required for data: 1252800204
I0717 11:56:39.541613 16526 layer_factory.hpp:77] Creating layer conv3_2
I0717 11:56:39.541622 16526 net.cpp:106] Creating Layer conv3_2
I0717 11:56:39.541626 16526 net.cpp:454] conv3_2 <- conv3_1
I0717 11:56:39.541631 16526 net.cpp:411] conv3_2 -> conv3_2
I0717 11:56:39.545490 16526 net.cpp:150] Setting up conv3_2
I0717 11:56:39.545511 16526 net.cpp:157] Top shape: 1 256 150 250 (9600000)
I0717 11:56:39.545516 16526 net.cpp:165] Memory required for data: 1291200204
I0717 11:56:39.545522 16526 layer_factory.hpp:77] Creating layer relu3_2
I0717 11:56:39.545529 16526 net.cpp:106] Creating Layer relu3_2
I0717 11:56:39.545533 16526 net.cpp:454] relu3_2 <- conv3_2
I0717 11:56:39.545539 16526 net.cpp:397] relu3_2 -> conv3_2 (in-place)
I0717 11:56:39.545742 16526 net.cpp:150] Setting up relu3_2
I0717 11:56:39.545755 16526 net.cpp:157] Top shape: 1 256 150 250 (9600000)
I0717 11:56:39.545759 16526 net.cpp:165] Memory required for data: 1329600204
I0717 11:56:39.545763 16526 layer_factory.hpp:77] Creating layer conv3_3
I0717 11:56:39.545773 16526 net.cpp:106] Creating Layer conv3_3
I0717 11:56:39.545776 16526 net.cpp:454] conv3_3 <- conv3_2
I0717 11:56:39.545783 16526 net.cpp:411] conv3_3 -> conv3_3
I0717 11:56:39.549619 16526 net.cpp:150] Setting up conv3_3
I0717 11:56:39.549641 16526 net.cpp:157] Top shape: 1 256 150 250 (9600000)
I0717 11:56:39.549645 16526 net.cpp:165] Memory required for data: 1368000204
I0717 11:56:39.549652 16526 layer_factory.hpp:77] Creating layer relu3_3
I0717 11:56:39.549659 16526 net.cpp:106] Creating Layer relu3_3
I0717 11:56:39.549664 16526 net.cpp:454] relu3_3 <- conv3_3
I0717 11:56:39.549669 16526 net.cpp:397] relu3_3 -> conv3_3 (in-place)
I0717 11:56:39.550514 16526 net.cpp:150] Setting up relu3_3
I0717 11:56:39.550532 16526 net.cpp:157] Top shape: 1 256 150 250 (9600000)
I0717 11:56:39.550536 16526 net.cpp:165] Memory required for data: 1406400204
I0717 11:56:39.550539 16526 layer_factory.hpp:77] Creating layer conv3_3_relu3_3_0_split
I0717 11:56:39.550547 16526 net.cpp:106] Creating Layer conv3_3_relu3_3_0_split
I0717 11:56:39.550551 16526 net.cpp:454] conv3_3_relu3_3_0_split <- conv3_3
I0717 11:56:39.550557 16526 net.cpp:411] conv3_3_relu3_3_0_split -> conv3_3_relu3_3_0_split_0
I0717 11:56:39.550570 16526 net.cpp:411] conv3_3_relu3_3_0_split -> conv3_3_relu3_3_0_split_1
I0717 11:56:39.550617 16526 net.cpp:150] Setting up conv3_3_relu3_3_0_split
I0717 11:56:39.550631 16526 net.cpp:157] Top shape: 1 256 150 250 (9600000)
I0717 11:56:39.550635 16526 net.cpp:157] Top shape: 1 256 150 250 (9600000)
I0717 11:56:39.550638 16526 net.cpp:165] Memory required for data: 1483200204
I0717 11:56:39.550642 16526 layer_factory.hpp:77] Creating layer pool3
I0717 11:56:39.550647 16526 net.cpp:106] Creating Layer pool3
I0717 11:56:39.550652 16526 net.cpp:454] pool3 <- conv3_3_relu3_3_0_split_0
I0717 11:56:39.550657 16526 net.cpp:411] pool3 -> pool3
I0717 11:56:39.550696 16526 net.cpp:150] Setting up pool3
I0717 11:56:39.550706 16526 net.cpp:157] Top shape: 1 256 75 125 (2400000)
I0717 11:56:39.550710 16526 net.cpp:165] Memory required for data: 1492800204
I0717 11:56:39.550714 16526 layer_factory.hpp:77] Creating layer conv4_1
I0717 11:56:39.550722 16526 net.cpp:106] Creating Layer conv4_1
I0717 11:56:39.550725 16526 net.cpp:454] conv4_1 <- pool3
I0717 11:56:39.550732 16526 net.cpp:411] conv4_1 -> conv4_1
I0717 11:56:39.556720 16526 net.cpp:150] Setting up conv4_1
I0717 11:56:39.556749 16526 net.cpp:157] Top shape: 1 512 75 125 (4800000)
I0717 11:56:39.556753 16526 net.cpp:165] Memory required for data: 1512000204
I0717 11:56:39.556762 16526 layer_factory.hpp:77] Creating layer relu4_1
I0717 11:56:39.556769 16526 net.cpp:106] Creating Layer relu4_1
I0717 11:56:39.556774 16526 net.cpp:454] relu4_1 <- conv4_1
I0717 11:56:39.556780 16526 net.cpp:397] relu4_1 -> conv4_1 (in-place)
I0717 11:56:39.557687 16526 net.cpp:150] Setting up relu4_1
I0717 11:56:39.557704 16526 net.cpp:157] Top shape: 1 512 75 125 (4800000)
I0717 11:56:39.557708 16526 net.cpp:165] Memory required for data: 1531200204
I0717 11:56:39.557713 16526 layer_factory.hpp:77] Creating layer conv4_2
I0717 11:56:39.557724 16526 net.cpp:106] Creating Layer conv4_2
I0717 11:56:39.557729 16526 net.cpp:454] conv4_2 <- conv4_1
I0717 11:56:39.557735 16526 net.cpp:411] conv4_2 -> conv4_2
I0717 11:56:39.565286 16526 net.cpp:150] Setting up conv4_2
I0717 11:56:39.565316 16526 net.cpp:157] Top shape: 1 512 75 125 (4800000)
I0717 11:56:39.565320 16526 net.cpp:165] Memory required for data: 1550400204
I0717 11:56:39.565336 16526 layer_factory.hpp:77] Creating layer relu4_2
I0717 11:56:39.565346 16526 net.cpp:106] Creating Layer relu4_2
I0717 11:56:39.565352 16526 net.cpp:454] relu4_2 <- conv4_2
I0717 11:56:39.565357 16526 net.cpp:397] relu4_2 -> conv4_2 (in-place)
I0717 11:56:39.565541 16526 net.cpp:150] Setting up relu4_2
I0717 11:56:39.565574 16526 net.cpp:157] Top shape: 1 512 75 125 (4800000)
I0717 11:56:39.565578 16526 net.cpp:165] Memory required for data: 1569600204
I0717 11:56:39.565582 16526 layer_factory.hpp:77] Creating layer conv4_3
I0717 11:56:39.565593 16526 net.cpp:106] Creating Layer conv4_3
I0717 11:56:39.565598 16526 net.cpp:454] conv4_3 <- conv4_2
I0717 11:56:39.565605 16526 net.cpp:411] conv4_3 -> conv4_3
I0717 11:56:39.572686 16526 net.cpp:150] Setting up conv4_3
I0717 11:56:39.572718 16526 net.cpp:157] Top shape: 1 512 75 125 (4800000)
I0717 11:56:39.572723 16526 net.cpp:165] Memory required for data: 1588800204
I0717 11:56:39.572733 16526 layer_factory.hpp:77] Creating layer relu4_3
I0717 11:56:39.572741 16526 net.cpp:106] Creating Layer relu4_3
I0717 11:56:39.572746 16526 net.cpp:454] relu4_3 <- conv4_3
I0717 11:56:39.572755 16526 net.cpp:397] relu4_3 -> conv4_3 (in-place)
I0717 11:56:39.573678 16526 net.cpp:150] Setting up relu4_3
I0717 11:56:39.573696 16526 net.cpp:157] Top shape: 1 512 75 125 (4800000)
I0717 11:56:39.573701 16526 net.cpp:165] Memory required for data: 1608000204
I0717 11:56:39.573704 16526 layer_factory.hpp:77] Creating layer conv4_3_relu4_3_0_split
I0717 11:56:39.573712 16526 net.cpp:106] Creating Layer conv4_3_relu4_3_0_split
I0717 11:56:39.573716 16526 net.cpp:454] conv4_3_relu4_3_0_split <- conv4_3
I0717 11:56:39.573721 16526 net.cpp:411] conv4_3_relu4_3_0_split -> conv4_3_relu4_3_0_split_0
I0717 11:56:39.573734 16526 net.cpp:411] conv4_3_relu4_3_0_split -> conv4_3_relu4_3_0_split_1
I0717 11:56:39.573820 16526 net.cpp:150] Setting up conv4_3_relu4_3_0_split
I0717 11:56:39.573833 16526 net.cpp:157] Top shape: 1 512 75 125 (4800000)
I0717 11:56:39.573838 16526 net.cpp:157] Top shape: 1 512 75 125 (4800000)
I0717 11:56:39.573842 16526 net.cpp:165] Memory required for data: 1646400204
I0717 11:56:39.573844 16526 layer_factory.hpp:77] Creating layer pool4
I0717 11:56:39.573853 16526 net.cpp:106] Creating Layer pool4
I0717 11:56:39.573858 16526 net.cpp:454] pool4 <- conv4_3_relu4_3_0_split_0
I0717 11:56:39.573863 16526 net.cpp:411] pool4 -> pool4
I0717 11:56:39.573906 16526 net.cpp:150] Setting up pool4
I0717 11:56:39.573917 16526 net.cpp:157] Top shape: 1 512 38 63 (1225728)
I0717 11:56:39.573920 16526 net.cpp:165] Memory required for data: 1651303116
I0717 11:56:39.573925 16526 layer_factory.hpp:77] Creating layer conv5_1
I0717 11:56:39.573933 16526 net.cpp:106] Creating Layer conv5_1
I0717 11:56:39.573937 16526 net.cpp:454] conv5_1 <- pool4
I0717 11:56:39.573942 16526 net.cpp:411] conv5_1 -> conv5_1
I0717 11:56:39.580925 16526 net.cpp:150] Setting up conv5_1
I0717 11:56:39.580962 16526 net.cpp:157] Top shape: 1 512 38 63 (1225728)
I0717 11:56:39.580967 16526 net.cpp:165] Memory required for data: 1656206028
I0717 11:56:39.580976 16526 layer_factory.hpp:77] Creating layer relu5_1
I0717 11:56:39.580992 16526 net.cpp:106] Creating Layer relu5_1
I0717 11:56:39.580997 16526 net.cpp:454] relu5_1 <- conv5_1
I0717 11:56:39.581015 16526 net.cpp:397] relu5_1 -> conv5_1 (in-place)
I0717 11:56:39.581219 16526 net.cpp:150] Setting up relu5_1
I0717 11:56:39.581234 16526 net.cpp:157] Top shape: 1 512 38 63 (1225728)
I0717 11:56:39.581238 16526 net.cpp:165] Memory required for data: 1661108940
I0717 11:56:39.581243 16526 layer_factory.hpp:77] Creating layer conv5_2
I0717 11:56:39.581254 16526 net.cpp:106] Creating Layer conv5_2
I0717 11:56:39.581260 16526 net.cpp:454] conv5_2 <- conv5_1
I0717 11:56:39.581266 16526 net.cpp:411] conv5_2 -> conv5_2
I0717 11:56:39.588560 16526 net.cpp:150] Setting up conv5_2
I0717 11:56:39.588606 16526 net.cpp:157] Top shape: 1 512 38 63 (1225728)
I0717 11:56:39.588611 16526 net.cpp:165] Memory required for data: 1666011852
I0717 11:56:39.588623 16526 layer_factory.hpp:77] Creating layer relu5_2
I0717 11:56:39.588632 16526 net.cpp:106] Creating Layer relu5_2
I0717 11:56:39.588639 16526 net.cpp:454] relu5_2 <- conv5_2
I0717 11:56:39.588652 16526 net.cpp:397] relu5_2 -> conv5_2 (in-place)
I0717 11:56:39.588842 16526 net.cpp:150] Setting up relu5_2
I0717 11:56:39.588858 16526 net.cpp:157] Top shape: 1 512 38 63 (1225728)
I0717 11:56:39.588862 16526 net.cpp:165] Memory required for data: 1670914764
I0717 11:56:39.588866 16526 layer_factory.hpp:77] Creating layer conv5_3
I0717 11:56:39.588878 16526 net.cpp:106] Creating Layer conv5_3
I0717 11:56:39.588882 16526 net.cpp:454] conv5_3 <- conv5_2
I0717 11:56:39.588889 16526 net.cpp:411] conv5_3 -> conv5_3
I0717 11:56:39.595734 16526 net.cpp:150] Setting up conv5_3
I0717 11:56:39.595760 16526 net.cpp:157] Top shape: 1 512 38 63 (1225728)
I0717 11:56:39.595765 16526 net.cpp:165] Memory required for data: 1675817676
I0717 11:56:39.595772 16526 layer_factory.hpp:77] Creating layer relu5_3
I0717 11:56:39.595778 16526 net.cpp:106] Creating Layer relu5_3
I0717 11:56:39.595782 16526 net.cpp:454] relu5_3 <- conv5_3
I0717 11:56:39.595788 16526 net.cpp:397] relu5_3 -> conv5_3 (in-place)
I0717 11:56:39.596640 16526 net.cpp:150] Setting up relu5_3
I0717 11:56:39.596659 16526 net.cpp:157] Top shape: 1 512 38 63 (1225728)
I0717 11:56:39.596663 16526 net.cpp:165] Memory required for data: 1680720588
I0717 11:56:39.596668 16526 layer_factory.hpp:77] Creating layer newC5
I0717 11:56:39.596680 16526 net.cpp:106] Creating Layer newC5
I0717 11:56:39.596684 16526 net.cpp:454] newC5 <- conv5_3
I0717 11:56:39.596691 16526 net.cpp:411] newC5 -> newC5
I0717 11:56:39.602466 16526 net.cpp:150] Setting up newC5
I0717 11:56:39.602490 16526 net.cpp:157] Top shape: 1 256 38 63 (612864)
I0717 11:56:39.602495 16526 net.cpp:165] Memory required for data: 1683172044
I0717 11:56:39.602502 16526 layer_factory.hpp:77] Creating layer newC5_newC5_0_split
I0717 11:56:39.602509 16526 net.cpp:106] Creating Layer newC5_newC5_0_split
I0717 11:56:39.602514 16526 net.cpp:454] newC5_newC5_0_split <- newC5
I0717 11:56:39.602522 16526 net.cpp:411] newC5_newC5_0_split -> newC5_newC5_0_split_0
I0717 11:56:39.602529 16526 net.cpp:411] newC5_newC5_0_split -> newC5_newC5_0_split_1
I0717 11:56:39.602535 16526 net.cpp:411] newC5_newC5_0_split -> newC5_newC5_0_split_2
I0717 11:56:39.602592 16526 net.cpp:150] Setting up newC5_newC5_0_split
I0717 11:56:39.602598 16526 net.cpp:157] Top shape: 1 256 38 63 (612864)
I0717 11:56:39.602602 16526 net.cpp:157] Top shape: 1 256 38 63 (612864)
I0717 11:56:39.602607 16526 net.cpp:157] Top shape: 1 256 38 63 (612864)
I0717 11:56:39.602609 16526 net.cpp:165] Memory required for data: 1690526412
I0717 11:56:39.602612 16526 layer_factory.hpp:77] Creating layer upP5
I0717 11:56:39.602627 16526 net.cpp:106] Creating Layer upP5
I0717 11:56:39.602630 16526 net.cpp:454] upP5 <- newC5_newC5_0_split_0
I0717 11:56:39.602635 16526 net.cpp:411] upP5 -> upP5
I0717 11:56:39.602927 16526 net.cpp:150] Setting up upP5
I0717 11:56:39.602942 16526 net.cpp:157] Top shape: 1 256 76 126 (2451456)
I0717 11:56:39.602946 16526 net.cpp:165] Memory required for data: 1700332236
I0717 11:56:39.602951 16526 layer_factory.hpp:77] Creating layer newC4
I0717 11:56:39.602959 16526 net.cpp:106] Creating Layer newC4
I0717 11:56:39.602963 16526 net.cpp:454] newC4 <- conv4_3_relu4_3_0_split_1
I0717 11:56:39.602970 16526 net.cpp:411] newC4 -> newC4
I0717 11:56:39.608261 16526 net.cpp:150] Setting up newC4
I0717 11:56:39.608285 16526 net.cpp:157] Top shape: 1 256 75 125 (2400000)
I0717 11:56:39.608289 16526 net.cpp:165] Memory required for data: 1709932236
I0717 11:56:39.608296 16526 layer_factory.hpp:77] Creating layer newC4_newC4_0_split
I0717 11:56:39.608304 16526 net.cpp:106] Creating Layer newC4_newC4_0_split
I0717 11:56:39.608307 16526 net.cpp:454] newC4_newC4_0_split <- newC4
I0717 11:56:39.608314 16526 net.cpp:411] newC4_newC4_0_split -> newC4_newC4_0_split_0
I0717 11:56:39.608322 16526 net.cpp:411] newC4_newC4_0_split -> newC4_newC4_0_split_1
I0717 11:56:39.608366 16526 net.cpp:150] Setting up newC4_newC4_0_split
I0717 11:56:39.608372 16526 net.cpp:157] Top shape: 1 256 75 125 (2400000)
I0717 11:56:39.608376 16526 net.cpp:157] Top shape: 1 256 75 125 (2400000)
I0717 11:56:39.608379 16526 net.cpp:165] Memory required for data: 1729132236
I0717 11:56:39.608382 16526 layer_factory.hpp:77] Creating layer upP5crop
I0717 11:56:39.608393 16526 net.cpp:106] Creating Layer upP5crop
I0717 11:56:39.608398 16526 net.cpp:454] upP5crop <- upP5
I0717 11:56:39.608402 16526 net.cpp:454] upP5crop <- newC4_newC4_0_split_0
I0717 11:56:39.608407 16526 net.cpp:411] upP5crop -> upP5crop
I0717 11:56:39.608510 16526 net.cpp:150] Setting up upP5crop
I0717 11:56:39.608516 16526 net.cpp:157] Top shape: 1 256 75 125 (2400000)
I0717 11:56:39.608520 16526 net.cpp:165] Memory required for data: 1738732236
I0717 11:56:39.608522 16526 layer_factory.hpp:77] Creating layer P4
I0717 11:56:39.608532 16526 net.cpp:106] Creating Layer P4
I0717 11:56:39.608536 16526 net.cpp:454] P4 <- newC4_newC4_0_split_1
I0717 11:56:39.608541 16526 net.cpp:454] P4 <- upP5crop
I0717 11:56:39.608544 16526 net.cpp:411] P4 -> P4
I0717 11:56:39.608575 16526 net.cpp:150] Setting up P4
I0717 11:56:39.608582 16526 net.cpp:157] Top shape: 1 256 75 125 (2400000)
I0717 11:56:39.608584 16526 net.cpp:165] Memory required for data: 1748332236
I0717 11:56:39.608587 16526 layer_factory.hpp:77] Creating layer P4_P4_0_split
I0717 11:56:39.608592 16526 net.cpp:106] Creating Layer P4_P4_0_split
I0717 11:56:39.608595 16526 net.cpp:454] P4_P4_0_split <- P4
I0717 11:56:39.608602 16526 net.cpp:411] P4_P4_0_split -> P4_P4_0_split_0
I0717 11:56:39.608608 16526 net.cpp:411] P4_P4_0_split -> P4_P4_0_split_1
I0717 11:56:39.608641 16526 net.cpp:150] Setting up P4_P4_0_split
I0717 11:56:39.608647 16526 net.cpp:157] Top shape: 1 256 75 125 (2400000)
I0717 11:56:39.608651 16526 net.cpp:157] Top shape: 1 256 75 125 (2400000)
I0717 11:56:39.608654 16526 net.cpp:165] Memory required for data: 1767532236
I0717 11:56:39.608657 16526 layer_factory.hpp:77] Creating layer newP4
I0717 11:56:39.608667 16526 net.cpp:106] Creating Layer newP4
I0717 11:56:39.608671 16526 net.cpp:454] newP4 <- P4_P4_0_split_0
I0717 11:56:39.608677 16526 net.cpp:411] newP4 -> newP4
I0717 11:56:39.626354 16526 net.cpp:150] Setting up newP4
I0717 11:56:39.626381 16526 net.cpp:157] Top shape: 1 256 75 125 (2400000)
I0717 11:56:39.626386 16526 net.cpp:165] Memory required for data: 1777132236
I0717 11:56:39.626404 16526 layer_factory.hpp:77] Creating layer newP4_newP4_0_split
I0717 11:56:39.626410 16526 net.cpp:106] Creating Layer newP4_newP4_0_split
I0717 11:56:39.626415 16526 net.cpp:454] newP4_newP4_0_split <- newP4
I0717 11:56:39.626422 16526 net.cpp:411] newP4_newP4_0_split -> newP4_newP4_0_split_0
I0717 11:56:39.626430 16526 net.cpp:411] newP4_newP4_0_split -> newP4_newP4_0_split_1
I0717 11:56:39.626477 16526 net.cpp:150] Setting up newP4_newP4_0_split
I0717 11:56:39.626483 16526 net.cpp:157] Top shape: 1 256 75 125 (2400000)
I0717 11:56:39.626487 16526 net.cpp:157] Top shape: 1 256 75 125 (2400000)
I0717 11:56:39.626490 16526 net.cpp:165] Memory required for data: 1796332236
I0717 11:56:39.626493 16526 layer_factory.hpp:77] Creating layer upP4
I0717 11:56:39.626503 16526 net.cpp:106] Creating Layer upP4
I0717 11:56:39.626507 16526 net.cpp:454] upP4 <- P4_P4_0_split_1
I0717 11:56:39.626514 16526 net.cpp:411] upP4 -> upP4
I0717 11:56:39.626804 16526 net.cpp:150] Setting up upP4
I0717 11:56:39.626819 16526 net.cpp:157] Top shape: 1 256 150 250 (9600000)
I0717 11:56:39.626823 16526 net.cpp:165] Memory required for data: 1834732236
I0717 11:56:39.626827 16526 layer_factory.hpp:77] Creating layer newC3
I0717 11:56:39.626837 16526 net.cpp:106] Creating Layer newC3
I0717 11:56:39.626842 16526 net.cpp:454] newC3 <- conv3_3_relu3_3_0_split_1
I0717 11:56:39.626847 16526 net.cpp:411] newC3 -> newC3
I0717 11:56:39.631989 16526 net.cpp:150] Setting up newC3
I0717 11:56:39.632014 16526 net.cpp:157] Top shape: 1 256 150 250 (9600000)
I0717 11:56:39.632022 16526 net.cpp:165] Memory required for data: 1873132236
I0717 11:56:39.632036 16526 layer_factory.hpp:77] Creating layer newC3_newC3_0_split
I0717 11:56:39.632048 16526 net.cpp:106] Creating Layer newC3_newC3_0_split
I0717 11:56:39.632055 16526 net.cpp:454] newC3_newC3_0_split <- newC3
I0717 11:56:39.632066 16526 net.cpp:411] newC3_newC3_0_split -> newC3_newC3_0_split_0
I0717 11:56:39.632076 16526 net.cpp:411] newC3_newC3_0_split -> newC3_newC3_0_split_1
I0717 11:56:39.632145 16526 net.cpp:150] Setting up newC3_newC3_0_split
I0717 11:56:39.632161 16526 net.cpp:157] Top shape: 1 256 150 250 (9600000)
I0717 11:56:39.632170 16526 net.cpp:157] Top shape: 1 256 150 250 (9600000)
I0717 11:56:39.632175 16526 net.cpp:165] Memory required for data: 1949932236
I0717 11:56:39.632181 16526 layer_factory.hpp:77] Creating layer upP4crop
I0717 11:56:39.632191 16526 net.cpp:106] Creating Layer upP4crop
I0717 11:56:39.632197 16526 net.cpp:454] upP4crop <- upP4
I0717 11:56:39.632205 16526 net.cpp:454] upP4crop <- newC3_newC3_0_split_0
I0717 11:56:39.632217 16526 net.cpp:411] upP4crop -> upP4crop
I0717 11:56:39.632342 16526 net.cpp:150] Setting up upP4crop
I0717 11:56:39.632357 16526 net.cpp:157] Top shape: 1 256 150 250 (9600000)
I0717 11:56:39.632364 16526 net.cpp:165] Memory required for data: 1988332236
I0717 11:56:39.632369 16526 layer_factory.hpp:77] Creating layer P3
I0717 11:56:39.632382 16526 net.cpp:106] Creating Layer P3
I0717 11:56:39.632390 16526 net.cpp:454] P3 <- newC3_newC3_0_split_1
I0717 11:56:39.632397 16526 net.cpp:454] P3 <- upP4crop
I0717 11:56:39.632407 16526 net.cpp:411] P3 -> P3
I0717 11:56:39.632462 16526 net.cpp:150] Setting up P3
I0717 11:56:39.632479 16526 net.cpp:157] Top shape: 1 256 150 250 (9600000)
I0717 11:56:39.632485 16526 net.cpp:165] Memory required for data: 2026732236
I0717 11:56:39.632491 16526 layer_factory.hpp:77] Creating layer P3_P3_0_split
I0717 11:56:39.632503 16526 net.cpp:106] Creating Layer P3_P3_0_split
I0717 11:56:39.632510 16526 net.cpp:454] P3_P3_0_split <- P3
I0717 11:56:39.632519 16526 net.cpp:411] P3_P3_0_split -> P3_P3_0_split_0
I0717 11:56:39.632529 16526 net.cpp:411] P3_P3_0_split -> P3_P3_0_split_1
I0717 11:56:39.632585 16526 net.cpp:150] Setting up P3_P3_0_split
I0717 11:56:39.632598 16526 net.cpp:157] Top shape: 1 256 150 250 (9600000)
I0717 11:56:39.632606 16526 net.cpp:157] Top shape: 1 256 150 250 (9600000)
I0717 11:56:39.632612 16526 net.cpp:165] Memory required for data: 2103532236
I0717 11:56:39.632618 16526 layer_factory.hpp:77] Creating layer newP3
I0717 11:56:39.632633 16526 net.cpp:106] Creating Layer newP3
I0717 11:56:39.632640 16526 net.cpp:454] newP3 <- P3_P3_0_split_0
I0717 11:56:39.632650 16526 net.cpp:411] newP3 -> newP3
I0717 11:56:39.650830 16526 net.cpp:150] Setting up newP3
I0717 11:56:39.650859 16526 net.cpp:157] Top shape: 1 256 150 250 (9600000)
I0717 11:56:39.650866 16526 net.cpp:165] Memory required for data: 2141932236
I0717 11:56:39.650880 16526 layer_factory.hpp:77] Creating layer newP3_newP3_0_split
I0717 11:56:39.650892 16526 net.cpp:106] Creating Layer newP3_newP3_0_split
I0717 11:56:39.650898 16526 net.cpp:454] newP3_newP3_0_split <- newP3
I0717 11:56:39.650912 16526 net.cpp:411] newP3_newP3_0_split -> newP3_newP3_0_split_0
I0717 11:56:39.650923 16526 net.cpp:411] newP3_newP3_0_split -> newP3_newP3_0_split_1
I0717 11:56:39.650995 16526 net.cpp:150] Setting up newP3_newP3_0_split
I0717 11:56:39.651008 16526 net.cpp:157] Top shape: 1 256 150 250 (9600000)
I0717 11:56:39.651015 16526 net.cpp:157] Top shape: 1 256 150 250 (9600000)
I0717 11:56:39.651018 16526 net.cpp:165] Memory required for data: 2218732236
I0717 11:56:39.651023 16526 layer_factory.hpp:77] Creating layer upP3
I0717 11:56:39.651037 16526 net.cpp:106] Creating Layer upP3
I0717 11:56:39.651044 16526 net.cpp:454] upP3 <- P3_P3_0_split_1
I0717 11:56:39.651057 16526 net.cpp:411] upP3 -> upP3
I0717 11:56:39.651396 16526 net.cpp:150] Setting up upP3
I0717 11:56:39.651413 16526 net.cpp:157] Top shape: 1 256 300 500 (38400000)
I0717 11:56:39.651420 16526 net.cpp:165] Memory required for data: 2372332236
I0717 11:56:39.651428 16526 layer_factory.hpp:77] Creating layer newC2
I0717 11:56:39.651445 16526 net.cpp:106] Creating Layer newC2
I0717 11:56:39.651453 16526 net.cpp:454] newC2 <- conv2_2_relu2_2_0_split_1
I0717 11:56:39.651461 16526 net.cpp:411] newC2 -> newC2
I0717 11:56:39.655589 16526 net.cpp:150] Setting up newC2
I0717 11:56:39.655614 16526 net.cpp:157] Top shape: 1 256 300 500 (38400000)
I0717 11:56:39.655622 16526 net.cpp:165] Memory required for data: 2525932236
I0717 11:56:39.655635 16526 layer_factory.hpp:77] Creating layer newC2_newC2_0_split
I0717 11:56:39.655647 16526 net.cpp:106] Creating Layer newC2_newC2_0_split
I0717 11:56:39.655654 16526 net.cpp:454] newC2_newC2_0_split <- newC2
I0717 11:56:39.655665 16526 net.cpp:411] newC2_newC2_0_split -> newC2_newC2_0_split_0
I0717 11:56:39.655676 16526 net.cpp:411] newC2_newC2_0_split -> newC2_newC2_0_split_1
I0717 11:56:39.655750 16526 net.cpp:150] Setting up newC2_newC2_0_split
I0717 11:56:39.655766 16526 net.cpp:157] Top shape: 1 256 300 500 (38400000)
I0717 11:56:39.655774 16526 net.cpp:157] Top shape: 1 256 300 500 (38400000)
I0717 11:56:39.655779 16526 net.cpp:165] Memory required for data: 2833132236
I0717 11:56:39.655786 16526 layer_factory.hpp:77] Creating layer upP3crop
I0717 11:56:39.655798 16526 net.cpp:106] Creating Layer upP3crop
I0717 11:56:39.655805 16526 net.cpp:454] upP3crop <- upP3
I0717 11:56:39.655813 16526 net.cpp:454] upP3crop <- newC2_newC2_0_split_0
I0717 11:56:39.655822 16526 net.cpp:411] upP3crop -> upP3crop
I0717 11:56:39.655949 16526 net.cpp:150] Setting up upP3crop
I0717 11:56:39.655964 16526 net.cpp:157] Top shape: 1 256 300 500 (38400000)
I0717 11:56:39.655971 16526 net.cpp:165] Memory required for data: 2986732236
I0717 11:56:39.655977 16526 layer_factory.hpp:77] Creating layer P2
I0717 11:56:39.655987 16526 net.cpp:106] Creating Layer P2
I0717 11:56:39.655992 16526 net.cpp:454] P2 <- newC2_newC2_0_split_1
I0717 11:56:39.656000 16526 net.cpp:454] P2 <- upP3crop
I0717 11:56:39.656013 16526 net.cpp:411] P2 -> P2
I0717 11:56:39.656056 16526 net.cpp:150] Setting up P2
I0717 11:56:39.656071 16526 net.cpp:157] Top shape: 1 256 300 500 (38400000)
I0717 11:56:39.656077 16526 net.cpp:165] Memory required for data: 3140332236
I0717 11:56:39.656083 16526 layer_factory.hpp:77] Creating layer newP2
I0717 11:56:39.656098 16526 net.cpp:106] Creating Layer newP2
I0717 11:56:39.656106 16526 net.cpp:454] newP2 <- P2
I0717 11:56:39.656116 16526 net.cpp:411] newP2 -> newP2
I0717 11:56:39.673883 16526 net.cpp:150] Setting up newP2
I0717 11:56:39.673916 16526 net.cpp:157] Top shape: 1 256 300 500 (38400000)
I0717 11:56:39.673923 16526 net.cpp:165] Memory required for data: 3293932236
I0717 11:56:39.673934 16526 layer_factory.hpp:77] Creating layer newP2_newP2_0_split
I0717 11:56:39.673944 16526 net.cpp:106] Creating Layer newP2_newP2_0_split
I0717 11:56:39.673954 16526 net.cpp:454] newP2_newP2_0_split <- newP2
I0717 11:56:39.673962 16526 net.cpp:411] newP2_newP2_0_split -> newP2_newP2_0_split_0
I0717 11:56:39.673977 16526 net.cpp:411] newP2_newP2_0_split -> newP2_newP2_0_split_1
I0717 11:56:39.674051 16526 net.cpp:150] Setting up newP2_newP2_0_split
I0717 11:56:39.674067 16526 net.cpp:157] Top shape: 1 256 300 500 (38400000)
I0717 11:56:39.674074 16526 net.cpp:157] Top shape: 1 256 300 500 (38400000)
I0717 11:56:39.674079 16526 net.cpp:165] Memory required for data: 3601132236
I0717 11:56:39.674085 16526 layer_factory.hpp:77] Creating layer rpn_conv/3x3/p2
I0717 11:56:39.674106 16526 net.cpp:106] Creating Layer rpn_conv/3x3/p2
I0717 11:56:39.674113 16526 net.cpp:454] rpn_conv/3x3/p2 <- newP2_newP2_0_split_0
I0717 11:56:39.674124 16526 net.cpp:411] rpn_conv/3x3/p2 -> rpn/output/p2
I0717 11:56:39.713487 16526 net.cpp:150] Setting up rpn_conv/3x3/p2
I0717 11:56:39.713515 16526 net.cpp:157] Top shape: 1 512 300 500 (76800000)
I0717 11:56:39.713521 16526 net.cpp:165] Memory required for data: 3908332236
I0717 11:56:39.713536 16526 layer_factory.hpp:77] Creating layer rpn_relu/3x3/p2
I0717 11:56:39.713547 16526 net.cpp:106] Creating Layer rpn_relu/3x3/p2
I0717 11:56:39.713554 16526 net.cpp:454] rpn_relu/3x3/p2 <- rpn/output/p2
I0717 11:56:39.713563 16526 net.cpp:397] rpn_relu/3x3/p2 -> rpn/output/p2 (in-place)
I0717 11:56:39.714498 16526 net.cpp:150] Setting up rpn_relu/3x3/p2
I0717 11:56:39.714526 16526 net.cpp:157] Top shape: 1 512 300 500 (76800000)
I0717 11:56:39.714534 16526 net.cpp:165] Memory required for data: 4215532236
I0717 11:56:39.714540 16526 layer_factory.hpp:77] Creating layer rpn/output/p2_rpn_relu/3x3/p2_0_split
I0717 11:56:39.714566 16526 net.cpp:106] Creating Layer rpn/output/p2_rpn_relu/3x3/p2_0_split
I0717 11:56:39.714574 16526 net.cpp:454] rpn/output/p2_rpn_relu/3x3/p2_0_split <- rpn/output/p2
I0717 11:56:39.714586 16526 net.cpp:411] rpn/output/p2_rpn_relu/3x3/p2_0_split -> rpn/output/p2_rpn_relu/3x3/p2_0_split_0
I0717 11:56:39.714612 16526 net.cpp:411] rpn/output/p2_rpn_relu/3x3/p2_0_split -> rpn/output/p2_rpn_relu/3x3/p2_0_split_1
I0717 11:56:39.714685 16526 net.cpp:150] Setting up rpn/output/p2_rpn_relu/3x3/p2_0_split
I0717 11:56:39.714701 16526 net.cpp:157] Top shape: 1 512 300 500 (76800000)
I0717 11:56:39.714712 16526 net.cpp:157] Top shape: 1 512 300 500 (76800000)
I0717 11:56:39.714718 16526 net.cpp:165] Memory required for data: 4829932236
I0717 11:56:39.714725 16526 layer_factory.hpp:77] Creating layer rpn_cls_score/p2
I0717 11:56:39.714742 16526 net.cpp:106] Creating Layer rpn_cls_score/p2
I0717 11:56:39.714749 16526 net.cpp:454] rpn_cls_score/p2 <- rpn/output/p2_rpn_relu/3x3/p2_0_split_0
I0717 11:56:39.714759 16526 net.cpp:411] rpn_cls_score/p2 -> rpn_cls_score/p2
I0717 11:56:39.718704 16526 net.cpp:150] Setting up rpn_cls_score/p2
I0717 11:56:39.718729 16526 net.cpp:157] Top shape: 1 18 300 500 (2700000)
I0717 11:56:39.718735 16526 net.cpp:165] Memory required for data: 4840732236
I0717 11:56:39.718746 16526 layer_factory.hpp:77] Creating layer rpn_cls_score/p2_rpn_cls_score/p2_0_split
I0717 11:56:39.718760 16526 net.cpp:106] Creating Layer rpn_cls_score/p2_rpn_cls_score/p2_0_split
I0717 11:56:39.718767 16526 net.cpp:454] rpn_cls_score/p2_rpn_cls_score/p2_0_split <- rpn_cls_score/p2
I0717 11:56:39.718776 16526 net.cpp:411] rpn_cls_score/p2_rpn_cls_score/p2_0_split -> rpn_cls_score/p2_rpn_cls_score/p2_0_split_0
I0717 11:56:39.718787 16526 net.cpp:411] rpn_cls_score/p2_rpn_cls_score/p2_0_split -> rpn_cls_score/p2_rpn_cls_score/p2_0_split_1
I0717 11:56:39.718860 16526 net.cpp:150] Setting up rpn_cls_score/p2_rpn_cls_score/p2_0_split
I0717 11:56:39.718876 16526 net.cpp:157] Top shape: 1 18 300 500 (2700000)
I0717 11:56:39.718885 16526 net.cpp:157] Top shape: 1 18 300 500 (2700000)
I0717 11:56:39.718890 16526 net.cpp:165] Memory required for data: 4862332236
I0717 11:56:39.718896 16526 layer_factory.hpp:77] Creating layer rpn_bbox_pred/p2
I0717 11:56:39.718912 16526 net.cpp:106] Creating Layer rpn_bbox_pred/p2
I0717 11:56:39.718920 16526 net.cpp:454] rpn_bbox_pred/p2 <- rpn/output/p2_rpn_relu/3x3/p2_0_split_1
I0717 11:56:39.718933 16526 net.cpp:411] rpn_bbox_pred/p2 -> rpn_bbox_pred/p2
I0717 11:56:39.726889 16526 net.cpp:150] Setting up rpn_bbox_pred/p2
I0717 11:56:39.726912 16526 net.cpp:157] Top shape: 1 36 300 500 (5400000)
I0717 11:56:39.726920 16526 net.cpp:165] Memory required for data: 4883932236
I0717 11:56:39.726934 16526 layer_factory.hpp:77] Creating layer rpn_bbox_pred/p2_rpn_bbox_pred/p2_0_split
I0717 11:56:39.726945 16526 net.cpp:106] Creating Layer rpn_bbox_pred/p2_rpn_bbox_pred/p2_0_split
I0717 11:56:39.726953 16526 net.cpp:454] rpn_bbox_pred/p2_rpn_bbox_pred/p2_0_split <- rpn_bbox_pred/p2
I0717 11:56:39.726964 16526 net.cpp:411] rpn_bbox_pred/p2_rpn_bbox_pred/p2_0_split -> rpn_bbox_pred/p2_rpn_bbox_pred/p2_0_split_0
I0717 11:56:39.726975 16526 net.cpp:411] rpn_bbox_pred/p2_rpn_bbox_pred/p2_0_split -> rpn_bbox_pred/p2_rpn_bbox_pred/p2_0_split_1
I0717 11:56:39.727044 16526 net.cpp:150] Setting up rpn_bbox_pred/p2_rpn_bbox_pred/p2_0_split
I0717 11:56:39.727061 16526 net.cpp:157] Top shape: 1 36 300 500 (5400000)
I0717 11:56:39.727068 16526 net.cpp:157] Top shape: 1 36 300 500 (5400000)
I0717 11:56:39.727073 16526 net.cpp:165] Memory required for data: 4927132236
I0717 11:56:39.727079 16526 layer_factory.hpp:77] Creating layer rpn_cls_score_reshape/p2
I0717 11:56:39.727098 16526 net.cpp:106] Creating Layer rpn_cls_score_reshape/p2
I0717 11:56:39.727108 16526 net.cpp:454] rpn_cls_score_reshape/p2 <- rpn_cls_score/p2_rpn_cls_score/p2_0_split_0
I0717 11:56:39.727116 16526 net.cpp:411] rpn_cls_score_reshape/p2 -> rpn_cls_score_reshape/p2
I0717 11:56:39.727171 16526 net.cpp:150] Setting up rpn_cls_score_reshape/p2
I0717 11:56:39.727186 16526 net.cpp:157] Top shape: 1 2 2700 500 (2700000)
I0717 11:56:39.727192 16526 net.cpp:165] Memory required for data: 4937932236
I0717 11:56:39.727198 16526 layer_factory.hpp:77] Creating layer rpn_cls_score_reshape/p2_rpn_cls_score_reshape/p2_0_split
I0717 11:56:39.727207 16526 net.cpp:106] Creating Layer rpn_cls_score_reshape/p2_rpn_cls_score_reshape/p2_0_split
I0717 11:56:39.727213 16526 net.cpp:454] rpn_cls_score_reshape/p2_rpn_cls_score_reshape/p2_0_split <- rpn_cls_score_reshape/p2
I0717 11:56:39.727226 16526 net.cpp:411] rpn_cls_score_reshape/p2_rpn_cls_score_reshape/p2_0_split -> rpn_cls_score_reshape/p2_rpn_cls_score_reshape/p2_0_split_0
I0717 11:56:39.727236 16526 net.cpp:411] rpn_cls_score_reshape/p2_rpn_cls_score_reshape/p2_0_split -> rpn_cls_score_reshape/p2_rpn_cls_score_reshape/p2_0_split_1
I0717 11:56:39.727296 16526 net.cpp:150] Setting up rpn_cls_score_reshape/p2_rpn_cls_score_reshape/p2_0_split
I0717 11:56:39.727315 16526 net.cpp:157] Top shape: 1 2 2700 500 (2700000)
I0717 11:56:39.727324 16526 net.cpp:157] Top shape: 1 2 2700 500 (2700000)
I0717 11:56:39.727329 16526 net.cpp:165] Memory required for data: 4959532236
I0717 11:56:39.727335 16526 layer_factory.hpp:77] Creating layer rpn-data/p2
I0717 11:56:39.728533 16526 net.cpp:106] Creating Layer rpn-data/p2
I0717 11:56:39.728554 16526 net.cpp:454] rpn-data/p2 <- rpn_cls_score/p2_rpn_cls_score/p2_0_split_1
I0717 11:56:39.728565 16526 net.cpp:454] rpn-data/p2 <- gt_boxes_input-data_2_split_0
I0717 11:56:39.728574 16526 net.cpp:454] rpn-data/p2 <- im_info_input-data_1_split_0
I0717 11:56:39.728581 16526 net.cpp:454] rpn-data/p2 <- data_input-data_0_split_1
I0717 11:56:39.728591 16526 net.cpp:411] rpn-data/p2 -> rpn_labels/p2
I0717 11:56:39.728603 16526 net.cpp:411] rpn-data/p2 -> rpn_bbox_targets/p2
I0717 11:56:39.728613 16526 net.cpp:411] rpn-data/p2 -> rpn_bbox_inside_weights/p2
I0717 11:56:39.728623 16526 net.cpp:411] rpn-data/p2 -> rpn_bbox_outside_weights/p2
I0717 11:56:39.734609 16526 net.cpp:150] Setting up rpn-data/p2
I0717 11:56:39.734638 16526 net.cpp:157] Top shape: 1 1 2700 500 (1350000)
I0717 11:56:39.734647 16526 net.cpp:157] Top shape: 1 36 300 500 (5400000)
I0717 11:56:39.734653 16526 net.cpp:157] Top shape: 1 36 300 500 (5400000)
I0717 11:56:39.734659 16526 net.cpp:157] Top shape: 1 36 300 500 (5400000)
I0717 11:56:39.734664 16526 net.cpp:165] Memory required for data: 5029732236
I0717 11:56:39.734670 16526 layer_factory.hpp:77] Creating layer rpn_loss_cls/p2
I0717 11:56:39.734689 16526 net.cpp:106] Creating Layer rpn_loss_cls/p2
I0717 11:56:39.734699 16526 net.cpp:454] rpn_loss_cls/p2 <- rpn_cls_score_reshape/p2_rpn_cls_score_reshape/p2_0_split_0
I0717 11:56:39.734709 16526 net.cpp:454] rpn_loss_cls/p2 <- rpn_labels/p2
…
I0717 11:56:39.780411 16526 net.cpp:160]     with loss weight 1
I0717 11:56:39.780429 16526 net.cpp:165] Memory required for data: 5029732244
I0717 11:56:39.780439 16526 layer_factory.hpp:77] Creating layer rpn_cls_prob/p2
I0717 11:56:39.780462 16526 net.cpp:106] Creating Layer rpn_cls_prob/p2
I0717 11:56:39.780473 16526 net.cpp:454] rpn_cls_prob/p2 <- rpn_cls_score_reshape/p2_rpn_cls_score_reshape/p2_0_split_1
I0717 11:56:39.780488 16526 net.cpp:411] rpn_cls_prob/p2 -> rpn_cls_prob/p2
I0717 11:56:39.780887 16526 net.cpp:150] Setting up rpn_cls_prob/p2
I0717 11:56:39.780908 16526 net.cpp:157] Top shape: 1 2 2700 500 (2700000)
I0717 11:56:39.780915 16526 net.cpp:165] Memory required for data: 5040532244
I0717 11:56:39.780920 16526 layer_factory.hpp:77] Creating layer rpn_cls_prob_reshape/p2
I0717 11:56:39.780932 16526 net.cpp:106] Creating Layer rpn_cls_prob_reshape/p2
I0717 11:56:39.780939 16526 net.cpp:454] rpn_cls_prob_reshape/p2 <- rpn_cls_prob/p2
I0717 11:56:39.780951 16526 net.cpp:411] rpn_cls_prob_reshape/p2 -> rpn_cls_prob_reshape/p2
I0717 11:56:39.781003 16526 net.cpp:150] Setting up rpn_cls_prob_reshape/p2
I0717 11:56:39.781019 16526 net.cpp:157] Top shape: 1 18 300 500 (2700000)
I0717 11:56:39.781025 16526 net.cpp:165] Memory required for data: 5051332244
I0717 11:56:39.781030 16526 layer_factory.hpp:77] Creating layer proposal/p2
I0717 11:56:39.782389 16526 net.cpp:106] Creating Layer proposal/p2
I0717 11:56:39.782413 16526 net.cpp:454] proposal/p2 <- rpn_cls_prob_reshape/p2
I0717 11:56:39.782424 16526 net.cpp:454] proposal/p2 <- rpn_bbox_pred/p2_rpn_bbox_pred/p2_0_split_1
I0717 11:56:39.782433 16526 net.cpp:454] proposal/p2 <- im_info_input-data_1_split_1
I0717 11:56:39.782444 16526 net.cpp:411] proposal/p2 -> rpn_rois/p2
I0717 11:56:39.784553 16526 net.cpp:150] Setting up proposal/p2
I0717 11:56:39.784577 16526 net.cpp:157] Top shape: 1 5 (5)
I0717 11:56:39.784584 16526 net.cpp:165] Memory required for data: 5051332264
I0717 11:56:39.784590 16526 layer_factory.hpp:77] Creating layer rpn_conv/3x3/p3
I0717 11:56:39.784610 16526 net.cpp:106] Creating Layer rpn_conv/3x3/p3
I0717 11:56:39.784620 16526 net.cpp:454] rpn_conv/3x3/p3 <- newP3_newP3_0_split_0
I0717 11:56:39.784631 16526 net.cpp:411] rpn_conv/3x3/p3 -> rpn/output/p3
I0717 11:56:39.820622 16526 net.cpp:150] Setting up rpn_conv/3x3/p3
I0717 11:56:39.820677 16526 net.cpp:157] Top shape: 1 512 150 250 (19200000)
I0717 11:56:39.820683 16526 net.cpp:165] Memory required for data: 5128132264
I0717 11:56:39.820694 16526 layer_factory.hpp:77] Creating layer rpn_relu/3x3/p3
I0717 11:56:39.820706 16526 net.cpp:106] Creating Layer rpn_relu/3x3/p3
I0717 11:56:39.820713 16526 net.cpp:454] rpn_relu/3x3/p3 <- rpn/output/p3
I0717 11:56:39.820722 16526 net.cpp:397] rpn_relu/3x3/p3 -> rpn/output/p3 (in-place)
I0717 11:56:39.822285 16526 net.cpp:150] Setting up rpn_relu/3x3/p3
I0717 11:56:39.822309 16526 net.cpp:157] Top shape: 1 512 150 250 (19200000)
I0717 11:56:39.822312 16526 net.cpp:165] Memory required for data: 5204932264
I0717 11:56:39.822316 16526 layer_factory.hpp:77] Creating layer rpn/output/p3_rpn_relu/3x3/p3_0_split
I0717 11:56:39.822324 16526 net.cpp:106] Creating Layer rpn/output/p3_rpn_relu/3x3/p3_0_split
I0717 11:56:39.822329 16526 net.cpp:454] rpn/output/p3_rpn_relu/3x3/p3_0_split <- rpn/output/p3
I0717 11:56:39.822335 16526 net.cpp:411] rpn/output/p3_rpn_relu/3x3/p3_0_split -> rpn/output/p3_rpn_relu/3x3/p3_0_split_0
I0717 11:56:39.822343 16526 net.cpp:411] rpn/output/p3_rpn_relu/3x3/p3_0_split -> rpn/output/p3_rpn_relu/3x3/p3_0_split_1
I0717 11:56:39.822407 16526 net.cpp:150] Setting up rpn/output/p3_rpn_relu/3x3/p3_0_split
I0717 11:56:39.822420 16526 net.cpp:157] Top shape: 1 512 150 250 (19200000)
I0717 11:56:39.822425 16526 net.cpp:157] Top shape: 1 512 150 250 (19200000)
I0717 11:56:39.822428 16526 net.cpp:165] Memory required for data: 5358532264
I0717 11:56:39.822432 16526 layer_factory.hpp:77] Creating layer rpn_cls_score/p3
I0717 11:56:39.822445 16526 net.cpp:106] Creating Layer rpn_cls_score/p3
I0717 11:56:39.822449 16526 net.cpp:454] rpn_cls_score/p3 <- rpn/output/p3_rpn_relu/3x3/p3_0_split_0
I0717 11:56:39.822460 16526 net.cpp:411] rpn_cls_score/p3 -> rpn_cls_score/p3
I0717 11:56:39.828534 16526 net.cpp:150] Setting up rpn_cls_score/p3
I0717 11:56:39.828557 16526 net.cpp:157] Top shape: 1 18 150 250 (675000)
I0717 11:56:39.828562 16526 net.cpp:165] Memory required for data: 5361232264
I0717 11:56:39.828569 16526 layer_factory.hpp:77] Creating layer rpn_cls_score/p3_rpn_cls_score/p3_0_split
I0717 11:56:39.828575 16526 net.cpp:106] Creating Layer rpn_cls_score/p3_rpn_cls_score/p3_0_split
I0717 11:56:39.828580 16526 net.cpp:454] rpn_cls_score/p3_rpn_cls_score/p3_0_split <- rpn_cls_score/p3
I0717 11:56:39.828586 16526 net.cpp:411] rpn_cls_score/p3_rpn_cls_score/p3_0_split -> rpn_cls_score/p3_rpn_cls_score/p3_0_split_0
I0717 11:56:39.828596 16526 net.cpp:411] rpn_cls_score/p3_rpn_cls_score/p3_0_split -> rpn_cls_score/p3_rpn_cls_score/p3_0_split_1
I0717 11:56:39.828650 16526 net.cpp:150] Setting up rpn_cls_score/p3_rpn_cls_score/p3_0_split
I0717 11:56:39.828663 16526 net.cpp:157] Top shape: 1 18 150 250 (675000)
I0717 11:56:39.828667 16526 net.cpp:157] Top shape: 1 18 150 250 (675000)
I0717 11:56:39.828670 16526 net.cpp:165] Memory required for data: 5366632264
I0717 11:56:39.828675 16526 layer_factory.hpp:77] Creating layer rpn_bbox_pred/p3
I0717 11:56:39.828686 16526 net.cpp:106] Creating Layer rpn_bbox_pred/p3
I0717 11:56:39.828691 16526 net.cpp:454] rpn_bbox_pred/p3 <- rpn/output/p3_rpn_relu/3x3/p3_0_split_1
I0717 11:56:39.828698 16526 net.cpp:411] rpn_bbox_pred/p3 -> rpn_bbox_pred/p3
I0717 11:56:39.834734 16526 net.cpp:150] Setting up rpn_bbox_pred/p3
I0717 11:56:39.834758 16526 net.cpp:157] Top shape: 1 36 150 250 (1350000)
I0717 11:56:39.834764 16526 net.cpp:165] Memory required for data: 5372032264
I0717 11:56:39.834770 16526 layer_factory.hpp:77] Creating layer rpn_bbox_pred/p3_rpn_bbox_pred/p3_0_split
I0717 11:56:39.834777 16526 net.cpp:106] Creating Layer rpn_bbox_pred/p3_rpn_bbox_pred/p3_0_split
I0717 11:56:39.834781 16526 net.cpp:454] rpn_bbox_pred/p3_rpn_bbox_pred/p3_0_split <- rpn_bbox_pred/p3
I0717 11:56:39.834787 16526 net.cpp:411] rpn_bbox_pred/p3_rpn_bbox_pred/p3_0_split -> rpn_bbox_pred/p3_rpn_bbox_pred/p3_0_split_0
I0717 11:56:39.834794 16526 net.cpp:411] rpn_bbox_pred/p3_rpn_bbox_pred/p3_0_split -> rpn_bbox_pred/p3_rpn_bbox_pred/p3_0_split_1
I0717 11:56:39.834856 16526 net.cpp:150] Setting up rpn_bbox_pred/p3_rpn_bbox_pred/p3_0_split
I0717 11:56:39.834869 16526 net.cpp:157] Top shape: 1 36 150 250 (1350000)
I0717 11:56:39.834873 16526 net.cpp:157] Top shape: 1 36 150 250 (1350000)
I0717 11:56:39.834877 16526 net.cpp:165] Memory required for data: 5382832264
I0717 11:56:39.834880 16526 layer_factory.hpp:77] Creating layer rpn_cls_score_reshape/p3
I0717 11:56:39.834887 16526 net.cpp:106] Creating Layer rpn_cls_score_reshape/p3
I0717 11:56:39.834892 16526 net.cpp:454] rpn_cls_score_reshape/p3 <- rpn_cls_score/p3_rpn_cls_score/p3_0_split_0
I0717 11:56:39.834899 16526 net.cpp:411] rpn_cls_score_reshape/p3 -> rpn_cls_score_reshape/p3
I0717 11:56:39.834936 16526 net.cpp:150] Setting up rpn_cls_score_reshape/p3
I0717 11:56:39.834949 16526 net.cpp:157] Top shape: 1 2 1350 250 (675000)
I0717 11:56:39.834952 16526 net.cpp:165] Memory required for data: 5385532264
I0717 11:56:39.834955 16526 layer_factory.hpp:77] Creating layer rpn_cls_score_reshape/p3_rpn_cls_score_reshape/p3_0_split
I0717 11:56:39.834960 16526 net.cpp:106] Creating Layer rpn_cls_score_reshape/p3_rpn_cls_score_reshape/p3_0_split
I0717 11:56:39.834964 16526 net.cpp:454] rpn_cls_score_reshape/p3_rpn_cls_score_reshape/p3_0_split <- rpn_cls_score_reshape/p3
I0717 11:56:39.834969 16526 net.cpp:411] rpn_cls_score_reshape/p3_rpn_cls_score_reshape/p3_0_split -> rpn_cls_score_reshape/p3_rpn_cls_score_reshape/p3_0_split_0
I0717 11:56:39.834977 16526 net.cpp:411] rpn_cls_score_reshape/p3_rpn_cls_score_reshape/p3_0_split -> rpn_cls_score_reshape/p3_rpn_cls_score_reshape/p3_0_split_1
I0717 11:56:39.835021 16526 net.cpp:150] Setting up rpn_cls_score_reshape/p3_rpn_cls_score_reshape/p3_0_split
I0717 11:56:39.835032 16526 net.cpp:157] Top shape: 1 2 1350 250 (675000)
I0717 11:56:39.835036 16526 net.cpp:157] Top shape: 1 2 1350 250 (675000)
I0717 11:56:39.835039 16526 net.cpp:165] Memory required for data: 5390932264
I0717 11:56:39.835042 16526 layer_factory.hpp:77] Creating layer rpn-data/p3
I0717 11:56:39.835103 16526 net.cpp:106] Creating Layer rpn-data/p3
I0717 11:56:39.835116 16526 net.cpp:454] rpn-data/p3 <- rpn_cls_score/p3_rpn_cls_score/p3_0_split_1
I0717 11:56:39.835124 16526 net.cpp:454] rpn-data/p3 <- gt_boxes_input-data_2_split_1
I0717 11:56:39.835129 16526 net.cpp:454] rpn-data/p3 <- im_info_input-data_1_split_2
I0717 11:56:39.835134 16526 net.cpp:454] rpn-data/p3 <- data_input-data_0_split_2
I0717 11:56:39.835139 16526 net.cpp:411] rpn-data/p3 -> rpn_labels/p3
I0717 11:56:39.835146 16526 net.cpp:411] rpn-data/p3 -> rpn_bbox_targets/p3
I0717 11:56:39.835152 16526 net.cpp:411] rpn-data/p3 -> rpn_bbox_inside_weights/p3
I0717 11:56:39.835162 16526 net.cpp:411] rpn-data/p3 -> rpn_bbox_outside_weights/p3
I0717 11:56:39.837260 16526 net.cpp:150] Setting up rpn-data/p3
I0717 11:56:39.837285 16526 net.cpp:157] Top shape: 1 1 1350 250 (337500)
I0717 11:56:39.837290 16526 net.cpp:157] Top shape: 1 36 150 250 (1350000)
I0717 11:56:39.837293 16526 net.cpp:157] Top shape: 1 36 150 250 (1350000)
I0717 11:56:39.837296 16526 net.cpp:157] Top shape: 1 36 150 250 (1350000)
I0717 11:56:39.837299 16526 net.cpp:165] Memory required for data: 5408482264
I0717 11:56:39.837304 16526 layer_factory.hpp:77] Creating layer rpn_loss_cls/p3
I0717 11:56:39.837316 16526 net.cpp:106] Creating Layer rpn_loss_cls/p3
I0717 11:56:39.837333 16526 net.cpp:454] rpn_loss_cls/p3 <- rpn_cls_score_reshape/p3_rpn_cls_score_reshape/p3_0_split_0
I0717 11:56:39.837340 16526 net.cpp:454] rpn_loss_cls/p3 <- rpn_labels/p3
…
I0717 11:56:39.849475 16526 net.cpp:160]     with loss weight 1
I0717 11:56:39.849481 16526 net.cpp:165] Memory required for data: 5408482272
I0717 11:56:39.849485 16526 layer_factory.hpp:77] Creating layer rpn_cls_prob/p3
I0717 11:56:39.849491 16526 net.cpp:106] Creating Layer rpn_cls_prob/p3
I0717 11:56:39.849496 16526 net.cpp:454] rpn_cls_prob/p3 <- rpn_cls_score_reshape/p3_rpn_cls_score_reshape/p3_0_split_1
I0717 11:56:39.849504 16526 net.cpp:411] rpn_cls_prob/p3 -> rpn_cls_prob/p3
I0717 11:56:39.849768 16526 net.cpp:150] Setting up rpn_cls_prob/p3
I0717 11:56:39.849786 16526 net.cpp:157] Top shape: 1 2 1350 250 (675000)
I0717 11:56:39.849789 16526 net.cpp:165] Memory required for data: 5411182272
I0717 11:56:39.849792 16526 layer_factory.hpp:77] Creating layer rpn_cls_prob_reshape/p3
I0717 11:56:39.849802 16526 net.cpp:106] Creating Layer rpn_cls_prob_reshape/p3
I0717 11:56:39.849807 16526 net.cpp:454] rpn_cls_prob_reshape/p3 <- rpn_cls_prob/p3
I0717 11:56:39.849814 16526 net.cpp:411] rpn_cls_prob_reshape/p3 -> rpn_cls_prob_reshape/p3
I0717 11:56:39.849848 16526 net.cpp:150] Setting up rpn_cls_prob_reshape/p3
I0717 11:56:39.849859 16526 net.cpp:157] Top shape: 1 18 150 250 (675000)
I0717 11:56:39.849864 16526 net.cpp:165] Memory required for data: 5413882272
I0717 11:56:39.849866 16526 layer_factory.hpp:77] Creating layer proposal/p3
I0717 11:56:39.849897 16526 net.cpp:106] Creating Layer proposal/p3
I0717 11:56:39.849910 16526 net.cpp:454] proposal/p3 <- rpn_cls_prob_reshape/p3
I0717 11:56:39.849915 16526 net.cpp:454] proposal/p3 <- rpn_bbox_pred/p3_rpn_bbox_pred/p3_0_split_1
I0717 11:56:39.849920 16526 net.cpp:454] proposal/p3 <- im_info_input-data_1_split_3
I0717 11:56:39.849925 16526 net.cpp:411] proposal/p3 -> rpn_rois/p3
I0717 11:56:39.850432 16526 net.cpp:150] Setting up proposal/p3
I0717 11:56:39.850455 16526 net.cpp:157] Top shape: 1 5 (5)
I0717 11:56:39.850459 16526 net.cpp:165] Memory required for data: 5413882292
I0717 11:56:39.850464 16526 layer_factory.hpp:77] Creating layer rpn_conv/3x3/p4
I0717 11:56:39.850474 16526 net.cpp:106] Creating Layer rpn_conv/3x3/p4
I0717 11:56:39.850492 16526 net.cpp:454] rpn_conv/3x3/p4 <- newP4_newP4_0_split_0
I0717 11:56:39.850499 16526 net.cpp:411] rpn_conv/3x3/p4 -> rpn/output/p4
I0717 11:56:39.885357 16526 net.cpp:150] Setting up rpn_conv/3x3/p4
I0717 11:56:39.885411 16526 net.cpp:157] Top shape: 1 512 75 125 (4800000)
I0717 11:56:39.885416 16526 net.cpp:165] Memory required for data: 5433082292
I0717 11:56:39.885429 16526 layer_factory.hpp:77] Creating layer rpn_relu/3x3/p4
I0717 11:56:39.885444 16526 net.cpp:106] Creating Layer rpn_relu/3x3/p4
I0717 11:56:39.885468 16526 net.cpp:454] rpn_relu/3x3/p4 <- rpn/output/p4
I0717 11:56:39.885476 16526 net.cpp:397] rpn_relu/3x3/p4 -> rpn/output/p4 (in-place)
I0717 11:56:39.886394 16526 net.cpp:150] Setting up rpn_relu/3x3/p4
I0717 11:56:39.886414 16526 net.cpp:157] Top shape: 1 512 75 125 (4800000)
I0717 11:56:39.886417 16526 net.cpp:165] Memory required for data: 5452282292
I0717 11:56:39.886421 16526 layer_factory.hpp:77] Creating layer rpn/output/p4_rpn_relu/3x3/p4_0_split
I0717 11:56:39.886431 16526 net.cpp:106] Creating Layer rpn/output/p4_rpn_relu/3x3/p4_0_split
I0717 11:56:39.886435 16526 net.cpp:454] rpn/output/p4_rpn_relu/3x3/p4_0_split <- rpn/output/p4
I0717 11:56:39.886442 16526 net.cpp:411] rpn/output/p4_rpn_relu/3x3/p4_0_split -> rpn/output/p4_rpn_relu/3x3/p4_0_split_0
I0717 11:56:39.886466 16526 net.cpp:411] rpn/output/p4_rpn_relu/3x3/p4_0_split -> rpn/output/p4_rpn_relu/3x3/p4_0_split_1
I0717 11:56:39.886533 16526 net.cpp:150] Setting up rpn/output/p4_rpn_relu/3x3/p4_0_split
I0717 11:56:39.886548 16526 net.cpp:157] Top shape: 1 512 75 125 (4800000)
I0717 11:56:39.886551 16526 net.cpp:157] Top shape: 1 512 75 125 (4800000)
I0717 11:56:39.886554 16526 net.cpp:165] Memory required for data: 5490682292
I0717 11:56:39.886559 16526 layer_factory.hpp:77] Creating layer rpn_cls_score/p4
I0717 11:56:39.886574 16526 net.cpp:106] Creating Layer rpn_cls_score/p4
I0717 11:56:39.886589 16526 net.cpp:454] rpn_cls_score/p4 <- rpn/output/p4_rpn_relu/3x3/p4_0_split_0
I0717 11:56:39.886598 16526 net.cpp:411] rpn_cls_score/p4 -> rpn_cls_score/p4
I0717 11:56:39.890121 16526 net.cpp:150] Setting up rpn_cls_score/p4
I0717 11:56:39.890144 16526 net.cpp:157] Top shape: 1 18 75 125 (168750)
I0717 11:56:39.890149 16526 net.cpp:165] Memory required for data: 5491357292
I0717 11:56:39.890156 16526 layer_factory.hpp:77] Creating layer rpn_cls_score/p4_rpn_cls_score/p4_0_split
I0717 11:56:39.890166 16526 net.cpp:106] Creating Layer rpn_cls_score/p4_rpn_cls_score/p4_0_split
I0717 11:56:39.890172 16526 net.cpp:454] rpn_cls_score/p4_rpn_cls_score/p4_0_split <- rpn_cls_score/p4
I0717 11:56:39.890179 16526 net.cpp:411] rpn_cls_score/p4_rpn_cls_score/p4_0_split -> rpn_cls_score/p4_rpn_cls_score/p4_0_split_0
I0717 11:56:39.890187 16526 net.cpp:411] rpn_cls_score/p4_rpn_cls_score/p4_0_split -> rpn_cls_score/p4_rpn_cls_score/p4_0_split_1
I0717 11:56:39.890238 16526 net.cpp:150] Setting up rpn_cls_score/p4_rpn_cls_score/p4_0_split
I0717 11:56:39.890251 16526 net.cpp:157] Top shape: 1 18 75 125 (168750)
I0717 11:56:39.890256 16526 net.cpp:157] Top shape: 1 18 75 125 (168750)
I0717 11:56:39.890259 16526 net.cpp:165] Memory required for data: 5492707292
I0717 11:56:39.890262 16526 layer_factory.hpp:77] Creating layer rpn_bbox_pred/p4
I0717 11:56:39.890274 16526 net.cpp:106] Creating Layer rpn_bbox_pred/p4
I0717 11:56:39.890278 16526 net.cpp:454] rpn_bbox_pred/p4 <- rpn/output/p4_rpn_relu/3x3/p4_0_split_1
I0717 11:56:39.890286 16526 net.cpp:411] rpn_bbox_pred/p4 -> rpn_bbox_pred/p4
I0717 11:56:39.896222 16526 net.cpp:150] Setting up rpn_bbox_pred/p4
I0717 11:56:39.896247 16526 net.cpp:157] Top shape: 1 36 75 125 (337500)
I0717 11:56:39.896251 16526 net.cpp:165] Memory required for data: 5494057292
I0717 11:56:39.896260 16526 layer_factory.hpp:77] Creating layer rpn_bbox_pred/p4_rpn_bbox_pred/p4_0_split
I0717 11:56:39.896266 16526 net.cpp:106] Creating Layer rpn_bbox_pred/p4_rpn_bbox_pred/p4_0_split
I0717 11:56:39.896270 16526 net.cpp:454] rpn_bbox_pred/p4_rpn_bbox_pred/p4_0_split <- rpn_bbox_pred/p4
I0717 11:56:39.896280 16526 net.cpp:411] rpn_bbox_pred/p4_rpn_bbox_pred/p4_0_split -> rpn_bbox_pred/p4_rpn_bbox_pred/p4_0_split_0
I0717 11:56:39.896306 16526 net.cpp:411] rpn_bbox_pred/p4_rpn_bbox_pred/p4_0_split -> rpn_bbox_pred/p4_rpn_bbox_pred/p4_0_split_1
I0717 11:56:39.896370 16526 net.cpp:150] Setting up rpn_bbox_pred/p4_rpn_bbox_pred/p4_0_split
I0717 11:56:39.896384 16526 net.cpp:157] Top shape: 1 36 75 125 (337500)
I0717 11:56:39.896389 16526 net.cpp:157] Top shape: 1 36 75 125 (337500)
I0717 11:56:39.896392 16526 net.cpp:165] Memory required for data: 5496757292
I0717 11:56:39.896395 16526 layer_factory.hpp:77] Creating layer rpn_cls_score_reshape/p4
I0717 11:56:39.896405 16526 net.cpp:106] Creating Layer rpn_cls_score_reshape/p4
I0717 11:56:39.896409 16526 net.cpp:454] rpn_cls_score_reshape/p4 <- rpn_cls_score/p4_rpn_cls_score/p4_0_split_0
I0717 11:56:39.896415 16526 net.cpp:411] rpn_cls_score_reshape/p4 -> rpn_cls_score_reshape/p4
I0717 11:56:39.896453 16526 net.cpp:150] Setting up rpn_cls_score_reshape/p4
I0717 11:56:39.896466 16526 net.cpp:157] Top shape: 1 2 675 125 (168750)
I0717 11:56:39.896469 16526 net.cpp:165] Memory required for data: 5497432292
I0717 11:56:39.896473 16526 layer_factory.hpp:77] Creating layer rpn_cls_score_reshape/p4_rpn_cls_score_reshape/p4_0_split
I0717 11:56:39.896478 16526 net.cpp:106] Creating Layer rpn_cls_score_reshape/p4_rpn_cls_score_reshape/p4_0_split
I0717 11:56:39.896482 16526 net.cpp:454] rpn_cls_score_reshape/p4_rpn_cls_score_reshape/p4_0_split <- rpn_cls_score_reshape/p4
I0717 11:56:39.896489 16526 net.cpp:411] rpn_cls_score_reshape/p4_rpn_cls_score_reshape/p4_0_split -> rpn_cls_score_reshape/p4_rpn_cls_score_reshape/p4_0_split_0
I0717 11:56:39.896495 16526 net.cpp:411] rpn_cls_score_reshape/p4_rpn_cls_score_reshape/p4_0_split -> rpn_cls_score_reshape/p4_rpn_cls_score_reshape/p4_0_split_1
I0717 11:56:39.896538 16526 net.cpp:150] Setting up rpn_cls_score_reshape/p4_rpn_cls_score_reshape/p4_0_split
I0717 11:56:39.896550 16526 net.cpp:157] Top shape: 1 2 675 125 (168750)
I0717 11:56:39.896554 16526 net.cpp:157] Top shape: 1 2 675 125 (168750)
I0717 11:56:39.896558 16526 net.cpp:165] Memory required for data: 5498782292
I0717 11:56:39.896561 16526 layer_factory.hpp:77] Creating layer rpn-data/p4
I0717 11:56:39.896623 16526 net.cpp:106] Creating Layer rpn-data/p4
I0717 11:56:39.896636 16526 net.cpp:454] rpn-data/p4 <- rpn_cls_score/p4_rpn_cls_score/p4_0_split_1
I0717 11:56:39.896643 16526 net.cpp:454] rpn-data/p4 <- gt_boxes_input-data_2_split_2
I0717 11:56:39.896648 16526 net.cpp:454] rpn-data/p4 <- im_info_input-data_1_split_4
I0717 11:56:39.896652 16526 net.cpp:454] rpn-data/p4 <- data_input-data_0_split_3
I0717 11:56:39.896657 16526 net.cpp:411] rpn-data/p4 -> rpn_labels/p4
I0717 11:56:39.896664 16526 net.cpp:411] rpn-data/p4 -> rpn_bbox_targets/p4
I0717 11:56:39.896670 16526 net.cpp:411] rpn-data/p4 -> rpn_bbox_inside_weights/p4
I0717 11:56:39.896677 16526 net.cpp:411] rpn-data/p4 -> rpn_bbox_outside_weights/p4
I0717 11:56:39.898102 16526 net.cpp:150] Setting up rpn-data/p4
I0717 11:56:39.898126 16526 net.cpp:157] Top shape: 1 1 675 125 (84375)
I0717 11:56:39.898131 16526 net.cpp:157] Top shape: 1 36 75 125 (337500)
I0717 11:56:39.898135 16526 net.cpp:157] Top shape: 1 36 75 125 (337500)
I0717 11:56:39.898139 16526 net.cpp:157] Top shape: 1 36 75 125 (337500)
I0717 11:56:39.898142 16526 net.cpp:165] Memory required for data: 5503169792
I0717 11:56:39.898146 16526 layer_factory.hpp:77] Creating layer rpn_loss_cls/p4
I0717 11:56:39.898155 16526 net.cpp:106] Creating Layer rpn_loss_cls/p4
I0717 11:56:39.898160 16526 net.cpp:454] rpn_loss_cls/p4 <- rpn_cls_score_reshape/p4_rpn_cls_score_reshape/p4_0_split_0
I0717 11:56:39.898172 16526 net.cpp:454] rpn_loss_cls/p4 <- rpn_labels/p4
…
I0717 11:56:39.902439 16526 net.cpp:160]     with loss weight 1
I0717 11:56:39.902446 16526 net.cpp:165] Memory required for data: 5503169800
I0717 11:56:39.902451 16526 layer_factory.hpp:77] Creating layer rpn_cls_prob/p4
I0717 11:56:39.902459 16526 net.cpp:106] Creating Layer rpn_cls_prob/p4
I0717 11:56:39.902465 16526 net.cpp:454] rpn_cls_prob/p4 <- rpn_cls_score_reshape/p4_rpn_cls_score_reshape/p4_0_split_1
I0717 11:56:39.902479 16526 net.cpp:411] rpn_cls_prob/p4 -> rpn_cls_prob/p4
I0717 11:56:39.902771 16526 net.cpp:150] Setting up rpn_cls_prob/p4
I0717 11:56:39.902789 16526 net.cpp:157] Top shape: 1 2 675 125 (168750)
I0717 11:56:39.902792 16526 net.cpp:165] Memory required for data: 5503844800
I0717 11:56:39.902796 16526 layer_factory.hpp:77] Creating layer rpn_cls_prob_reshape/p4
I0717 11:56:39.902806 16526 net.cpp:106] Creating Layer rpn_cls_prob_reshape/p4
I0717 11:56:39.902812 16526 net.cpp:454] rpn_cls_prob_reshape/p4 <- rpn_cls_prob/p4
I0717 11:56:39.902817 16526 net.cpp:411] rpn_cls_prob_reshape/p4 -> rpn_cls_prob_reshape/p4
I0717 11:56:39.902856 16526 net.cpp:150] Setting up rpn_cls_prob_reshape/p4
I0717 11:56:39.902868 16526 net.cpp:157] Top shape: 1 18 75 125 (168750)
I0717 11:56:39.902873 16526 net.cpp:165] Memory required for data: 5504519800
I0717 11:56:39.902875 16526 layer_factory.hpp:77] Creating layer proposal/p4
I0717 11:56:39.902920 16526 net.cpp:106] Creating Layer proposal/p4
I0717 11:56:39.902930 16526 net.cpp:454] proposal/p4 <- rpn_cls_prob_reshape/p4
I0717 11:56:39.902937 16526 net.cpp:454] proposal/p4 <- rpn_bbox_pred/p4_rpn_bbox_pred/p4_0_split_1
I0717 11:56:39.902941 16526 net.cpp:454] proposal/p4 <- im_info_input-data_1_split_5
I0717 11:56:39.902947 16526 net.cpp:411] proposal/p4 -> rpn_rois/p4
I0717 11:56:39.903589 16526 net.cpp:150] Setting up proposal/p4
I0717 11:56:39.903610 16526 net.cpp:157] Top shape: 1 5 (5)
I0717 11:56:39.903614 16526 net.cpp:165] Memory required for data: 5504519820
I0717 11:56:39.903619 16526 layer_factory.hpp:77] Creating layer rpn_conv/3x3/p5
I0717 11:56:39.903635 16526 net.cpp:106] Creating Layer rpn_conv/3x3/p5
I0717 11:56:39.903640 16526 net.cpp:454] rpn_conv/3x3/p5 <- newC5_newC5_0_split_1
I0717 11:56:39.903647 16526 net.cpp:411] rpn_conv/3x3/p5 -> rpn/output/p5
I0717 11:56:39.938078 16526 net.cpp:150] Setting up rpn_conv/3x3/p5
I0717 11:56:39.938132 16526 net.cpp:157] Top shape: 1 512 38 63 (1225728)
I0717 11:56:39.938135 16526 net.cpp:165] Memory required for data: 5509422732
I0717 11:56:39.938148 16526 layer_factory.hpp:77] Creating layer rpn_relu/3x3/p5
I0717 11:56:39.938163 16526 net.cpp:106] Creating Layer rpn_relu/3x3/p5
I0717 11:56:39.938169 16526 net.cpp:454] rpn_relu/3x3/p5 <- rpn/output/p5
I0717 11:56:39.938179 16526 net.cpp:397] rpn_relu/3x3/p5 -> rpn/output/p5 (in-place)
I0717 11:56:39.939086 16526 net.cpp:150] Setting up rpn_relu/3x3/p5
I0717 11:56:39.939107 16526 net.cpp:157] Top shape: 1 512 38 63 (1225728)
I0717 11:56:39.939111 16526 net.cpp:165] Memory required for data: 5514325644
I0717 11:56:39.939116 16526 layer_factory.hpp:77] Creating layer rpn/output/p5_rpn_relu/3x3/p5_0_split
I0717 11:56:39.939124 16526 net.cpp:106] Creating Layer rpn/output/p5_rpn_relu/3x3/p5_0_split
I0717 11:56:39.939129 16526 net.cpp:454] rpn/output/p5_rpn_relu/3x3/p5_0_split <- rpn/output/p5
I0717 11:56:39.939136 16526 net.cpp:411] rpn/output/p5_rpn_relu/3x3/p5_0_split -> rpn/output/p5_rpn_relu/3x3/p5_0_split_0
I0717 11:56:39.939144 16526 net.cpp:411] rpn/output/p5_rpn_relu/3x3/p5_0_split -> rpn/output/p5_rpn_relu/3x3/p5_0_split_1
I0717 11:56:39.939229 16526 net.cpp:150] Setting up rpn/output/p5_rpn_relu/3x3/p5_0_split
I0717 11:56:39.939245 16526 net.cpp:157] Top shape: 1 512 38 63 (1225728)
I0717 11:56:39.939250 16526 net.cpp:157] Top shape: 1 512 38 63 (1225728)
I0717 11:56:39.939254 16526 net.cpp:165] Memory required for data: 5524131468
I0717 11:56:39.939257 16526 layer_factory.hpp:77] Creating layer rpn_cls_score/p5
I0717 11:56:39.939270 16526 net.cpp:106] Creating Layer rpn_cls_score/p5
I0717 11:56:39.939277 16526 net.cpp:454] rpn_cls_score/p5 <- rpn/output/p5_rpn_relu/3x3/p5_0_split_0
I0717 11:56:39.939286 16526 net.cpp:411] rpn_cls_score/p5 -> rpn_cls_score/p5
I0717 11:56:39.942572 16526 net.cpp:150] Setting up rpn_cls_score/p5
I0717 11:56:39.942595 16526 net.cpp:157] Top shape: 1 18 38 63 (43092)
I0717 11:56:39.942598 16526 net.cpp:165] Memory required for data: 5524303836
I0717 11:56:39.942626 16526 layer_factory.hpp:77] Creating layer rpn_cls_score/p5_rpn_cls_score/p5_0_split
I0717 11:56:39.942639 16526 net.cpp:106] Creating Layer rpn_cls_score/p5_rpn_cls_score/p5_0_split
I0717 11:56:39.942644 16526 net.cpp:454] rpn_cls_score/p5_rpn_cls_score/p5_0_split <- rpn_cls_score/p5
I0717 11:56:39.942652 16526 net.cpp:411] rpn_cls_score/p5_rpn_cls_score/p5_0_split -> rpn_cls_score/p5_rpn_cls_score/p5_0_split_0
I0717 11:56:39.942661 16526 net.cpp:411] rpn_cls_score/p5_rpn_cls_score/p5_0_split -> rpn_cls_score/p5_rpn_cls_score/p5_0_split_1
I0717 11:56:39.942713 16526 net.cpp:150] Setting up rpn_cls_score/p5_rpn_cls_score/p5_0_split
I0717 11:56:39.942725 16526 net.cpp:157] Top shape: 1 18 38 63 (43092)
I0717 11:56:39.942729 16526 net.cpp:157] Top shape: 1 18 38 63 (43092)
I0717 11:56:39.942733 16526 net.cpp:165] Memory required for data: 5524648572
I0717 11:56:39.942736 16526 layer_factory.hpp:77] Creating layer rpn_bbox_pred/p5
I0717 11:56:39.942746 16526 net.cpp:106] Creating Layer rpn_bbox_pred/p5
I0717 11:56:39.942751 16526 net.cpp:454] rpn_bbox_pred/p5 <- rpn/output/p5_rpn_relu/3x3/p5_0_split_1
I0717 11:56:39.942760 16526 net.cpp:411] rpn_bbox_pred/p5 -> rpn_bbox_pred/p5
I0717 11:56:39.947042 16526 net.cpp:150] Setting up rpn_bbox_pred/p5
I0717 11:56:39.947064 16526 net.cpp:157] Top shape: 1 36 38 63 (86184)
I0717 11:56:39.947068 16526 net.cpp:165] Memory required for data: 5524993308
I0717 11:56:39.947074 16526 layer_factory.hpp:77] Creating layer rpn_bbox_pred/p5_rpn_bbox_pred/p5_0_split
I0717 11:56:39.947083 16526 net.cpp:106] Creating Layer rpn_bbox_pred/p5_rpn_bbox_pred/p5_0_split
I0717 11:56:39.947088 16526 net.cpp:454] rpn_bbox_pred/p5_rpn_bbox_pred/p5_0_split <- rpn_bbox_pred/p5
I0717 11:56:39.947094 16526 net.cpp:411] rpn_bbox_pred/p5_rpn_bbox_pred/p5_0_split -> rpn_bbox_pred/p5_rpn_bbox_pred/p5_0_split_0
I0717 11:56:39.947100 16526 net.cpp:411] rpn_bbox_pred/p5_rpn_bbox_pred/p5_0_split -> rpn_bbox_pred/p5_rpn_bbox_pred/p5_0_split_1
I0717 11:56:39.947154 16526 net.cpp:150] Setting up rpn_bbox_pred/p5_rpn_bbox_pred/p5_0_split
I0717 11:56:39.947167 16526 net.cpp:157] Top shape: 1 36 38 63 (86184)
I0717 11:56:39.947172 16526 net.cpp:157] Top shape: 1 36 38 63 (86184)
I0717 11:56:39.947175 16526 net.cpp:165] Memory required for data: 5525682780
I0717 11:56:39.947178 16526 layer_factory.hpp:77] Creating layer rpn_cls_score_reshape/p5
I0717 11:56:39.947186 16526 net.cpp:106] Creating Layer rpn_cls_score_reshape/p5
I0717 11:56:39.947190 16526 net.cpp:454] rpn_cls_score_reshape/p5 <- rpn_cls_score/p5_rpn_cls_score/p5_0_split_0
I0717 11:56:39.947211 16526 net.cpp:411] rpn_cls_score_reshape/p5 -> rpn_cls_score_reshape/p5
I0717 11:56:39.947260 16526 net.cpp:150] Setting up rpn_cls_score_reshape/p5
I0717 11:56:39.947273 16526 net.cpp:157] Top shape: 1 2 342 63 (43092)
I0717 11:56:39.947276 16526 net.cpp:165] Memory required for data: 5525855148
I0717 11:56:39.947280 16526 layer_factory.hpp:77] Creating layer rpn_cls_score_reshape/p5_rpn_cls_score_reshape/p5_0_split
I0717 11:56:39.947288 16526 net.cpp:106] Creating Layer rpn_cls_score_reshape/p5_rpn_cls_score_reshape/p5_0_split
I0717 11:56:39.947293 16526 net.cpp:454] rpn_cls_score_reshape/p5_rpn_cls_score_reshape/p5_0_split <- rpn_cls_score_reshape/p5
I0717 11:56:39.947298 16526 net.cpp:411] rpn_cls_score_reshape/p5_rpn_cls_score_reshape/p5_0_split -> rpn_cls_score_reshape/p5_rpn_cls_score_reshape/p5_0_split_0
I0717 11:56:39.947305 16526 net.cpp:411] rpn_cls_score_reshape/p5_rpn_cls_score_reshape/p5_0_split -> rpn_cls_score_reshape/p5_rpn_cls_score_reshape/p5_0_split_1
I0717 11:56:39.947352 16526 net.cpp:150] Setting up rpn_cls_score_reshape/p5_rpn_cls_score_reshape/p5_0_split
I0717 11:56:39.947365 16526 net.cpp:157] Top shape: 1 2 342 63 (43092)
I0717 11:56:39.947369 16526 net.cpp:157] Top shape: 1 2 342 63 (43092)
I0717 11:56:39.947372 16526 net.cpp:165] Memory required for data: 5526199884
I0717 11:56:39.947376 16526 layer_factory.hpp:77] Creating layer rpn-data/p5
I0717 11:56:39.947434 16526 net.cpp:106] Creating Layer rpn-data/p5
I0717 11:56:39.947445 16526 net.cpp:454] rpn-data/p5 <- rpn_cls_score/p5_rpn_cls_score/p5_0_split_1
I0717 11:56:39.947453 16526 net.cpp:454] rpn-data/p5 <- gt_boxes_input-data_2_split_3
I0717 11:56:39.947458 16526 net.cpp:454] rpn-data/p5 <- im_info_input-data_1_split_6
I0717 11:56:39.947463 16526 net.cpp:454] rpn-data/p5 <- data_input-data_0_split_4
I0717 11:56:39.947468 16526 net.cpp:411] rpn-data/p5 -> rpn_labels/p5
I0717 11:56:39.947475 16526 net.cpp:411] rpn-data/p5 -> rpn_bbox_targets/p5
I0717 11:56:39.947481 16526 net.cpp:411] rpn-data/p5 -> rpn_bbox_inside_weights/p5
I0717 11:56:39.947490 16526 net.cpp:411] rpn-data/p5 -> rpn_bbox_outside_weights/p5
I0717 11:56:39.948876 16526 net.cpp:150] Setting up rpn-data/p5
I0717 11:56:39.948899 16526 net.cpp:157] Top shape: 1 1 342 63 (21546)
I0717 11:56:39.948905 16526 net.cpp:157] Top shape: 1 36 38 63 (86184)
I0717 11:56:39.948909 16526 net.cpp:157] Top shape: 1 36 38 63 (86184)
I0717 11:56:39.948912 16526 net.cpp:157] Top shape: 1 36 38 63 (86184)
I0717 11:56:39.948916 16526 net.cpp:165] Memory required for data: 5527320276
I0717 11:56:39.948920 16526 layer_factory.hpp:77] Creating layer rpn_loss_cls/p5
I0717 11:56:39.948928 16526 net.cpp:106] Creating Layer rpn_loss_cls/p5
I0717 11:56:39.948933 16526 net.cpp:454] rpn_loss_cls/p5 <- rpn_cls_score_reshape/p5_rpn_cls_score_reshape/p5_0_split_0
I0717 11:56:39.948945 16526 net.cpp:454] rpn_loss_cls/p5 <- rpn_labels/p5
…
I0717 11:56:39.950721 16526 net.cpp:160]     with loss weight 1
I0717 11:56:39.950726 16526 net.cpp:165] Memory required for data: 5527320284
I0717 11:56:39.950729 16526 layer_factory.hpp:77] Creating layer rpn_cls_prob/p5
I0717 11:56:39.950734 16526 net.cpp:106] Creating Layer rpn_cls_prob/p5
I0717 11:56:39.950738 16526 net.cpp:454] rpn_cls_prob/p5 <- rpn_cls_score_reshape/p5_rpn_cls_score_reshape/p5_0_split_1
I0717 11:56:39.950747 16526 net.cpp:411] rpn_cls_prob/p5 -> rpn_cls_prob/p5
I0717 11:56:39.951159 16526 net.cpp:150] Setting up rpn_cls_prob/p5
I0717 11:56:39.951179 16526 net.cpp:157] Top shape: 1 2 342 63 (43092)
I0717 11:56:39.951182 16526 net.cpp:165] Memory required for data: 5527492652
I0717 11:56:39.951186 16526 layer_factory.hpp:77] Creating layer rpn_cls_prob_reshape/p5
I0717 11:56:39.951192 16526 net.cpp:106] Creating Layer rpn_cls_prob_reshape/p5
I0717 11:56:39.951196 16526 net.cpp:454] rpn_cls_prob_reshape/p5 <- rpn_cls_prob/p5
I0717 11:56:39.951205 16526 net.cpp:411] rpn_cls_prob_reshape/p5 -> rpn_cls_prob_reshape/p5
I0717 11:56:39.951241 16526 net.cpp:150] Setting up rpn_cls_prob_reshape/p5
I0717 11:56:39.951256 16526 net.cpp:157] Top shape: 1 18 38 63 (43092)
I0717 11:56:39.951258 16526 net.cpp:165] Memory required for data: 5527665020
I0717 11:56:39.951262 16526 layer_factory.hpp:77] Creating layer proposal/p5
I0717 11:56:39.951287 16526 net.cpp:106] Creating Layer proposal/p5
I0717 11:56:39.951298 16526 net.cpp:454] proposal/p5 <- rpn_cls_prob_reshape/p5
I0717 11:56:39.951304 16526 net.cpp:454] proposal/p5 <- rpn_bbox_pred/p5_rpn_bbox_pred/p5_0_split_1
I0717 11:56:39.951309 16526 net.cpp:454] proposal/p5 <- im_info_input-data_1_split_7
I0717 11:56:39.951314 16526 net.cpp:411] proposal/p5 -> rpn_rois/p5
I0717 11:56:39.951822 16526 net.cpp:150] Setting up proposal/p5
I0717 11:56:39.951843 16526 net.cpp:157] Top shape: 1 5 (5)
I0717 11:56:39.951848 16526 net.cpp:165] Memory required for data: 5527665040
I0717 11:56:39.951851 16526 layer_factory.hpp:77] Creating layer roi-data
I0717 11:56:39.952246 16526 net.cpp:106] Creating Layer roi-data
I0717 11:56:39.952266 16526 net.cpp:454] roi-data <- rpn_rois/p2
I0717 11:56:39.952272 16526 net.cpp:454] roi-data <- rpn_rois/p3
I0717 11:56:39.952276 16526 net.cpp:454] roi-data <- rpn_rois/p4
I0717 11:56:39.952280 16526 net.cpp:454] roi-data <- rpn_rois/p5
I0717 11:56:39.952284 16526 net.cpp:454] roi-data <- gt_boxes_input-data_2_split_4
I0717 11:56:39.952291 16526 net.cpp:411] roi-data -> rois/p2
I0717 11:56:39.952299 16526 net.cpp:411] roi-data -> rois/p3
I0717 11:56:39.952316 16526 net.cpp:411] roi-data -> rois/p4
I0717 11:56:39.952322 16526 net.cpp:411] roi-data -> rois/p5
I0717 11:56:39.952327 16526 net.cpp:411] roi-data -> labels
I0717 11:56:39.952333 16526 net.cpp:411] roi-data -> bbox_targets
I0717 11:56:39.952339 16526 net.cpp:411] roi-data -> bbox_inside_weights
I0717 11:56:39.952347 16526 net.cpp:411] roi-data -> bbox_outside_weights
I0717 11:56:39.952771 16526 net.cpp:150] Setting up roi-data
I0717 11:56:39.952792 16526 net.cpp:157] Top shape: 1 5 (5)
I0717 11:56:39.952797 16526 net.cpp:157] Top shape: 1 5 (5)
I0717 11:56:39.952800 16526 net.cpp:157] Top shape: 1 5 (5)
I0717 11:56:39.952805 16526 net.cpp:157] Top shape: 1 1 (1)
I0717 11:56:39.952808 16526 net.cpp:157] Top shape: 1 84 (84)
I0717 11:56:39.952811 16526 net.cpp:157] Top shape: 1 84 (84)
I0717 11:56:39.952816 16526 net.cpp:157] Top shape: 1 84 (84)
I0717 11:56:39.952818 16526 net.cpp:157] Top shape: (0)
I0717 11:56:39.952821 16526 net.cpp:165] Memory required for data: 5527666112
I0717 11:56:39.952826 16526 layer_factory.hpp:77] Creating layer roi_pool/p2
I0717 11:56:39.952837 16526 net.cpp:106] Creating Layer roi_pool/p2
I0717 11:56:39.952842 16526 net.cpp:454] roi_pool/p2 <- newP2_newP2_0_split_1
I0717 11:56:39.952848 16526 net.cpp:454] roi_pool/p2 <- rois/p2
I0717 11:56:39.952853 16526 net.cpp:411] roi_pool/p2 -> roi_pool/p2
I0717 11:56:39.952862 16526 roi_pooling_layer.cpp:30] Spatial scale: 0.5
I0717 11:56:39.952922 16526 net.cpp:150] Setting up roi_pool/p2
I0717 11:56:39.952934 16526 net.cpp:157] Top shape: 1 256 7 7 (12544)
I0717 11:56:39.952939 16526 net.cpp:165] Memory required for data: 5527716288
I0717 11:56:39.952941 16526 layer_factory.hpp:77] Creating layer roi_pool/p3
I0717 11:56:39.952947 16526 net.cpp:106] Creating Layer roi_pool/p3
I0717 11:56:39.952951 16526 net.cpp:454] roi_pool/p3 <- newP3_newP3_0_split_1
I0717 11:56:39.952955 16526 net.cpp:454] roi_pool/p3 <- rois/p3
I0717 11:56:39.952965 16526 net.cpp:411] roi_pool/p3 -> roi_pool/p3
I0717 11:56:39.952970 16526 roi_pooling_layer.cpp:30] Spatial scale: 0.25
I0717 11:56:39.953022 16526 net.cpp:150] Setting up roi_pool/p3
I0717 11:56:39.953032 16526 net.cpp:157] Top shape: 1 256 7 7 (12544)
I0717 11:56:39.953047 16526 net.cpp:165] Memory required for data: 5527766464
I0717 11:56:39.953052 16526 layer_factory.hpp:77] Creating layer roi_pool/p4
I0717 11:56:39.953059 16526 net.cpp:106] Creating Layer roi_pool/p4
I0717 11:56:39.953063 16526 net.cpp:454] roi_pool/p4 <- newP4_newP4_0_split_1
I0717 11:56:39.953068 16526 net.cpp:454] roi_pool/p4 <- rois/p4
I0717 11:56:39.953073 16526 net.cpp:411] roi_pool/p4 -> roi_pool/p4
I0717 11:56:39.953080 16526 roi_pooling_layer.cpp:30] Spatial scale: 0.125
I0717 11:56:39.953128 16526 net.cpp:150] Setting up roi_pool/p4
I0717 11:56:39.953140 16526 net.cpp:157] Top shape: 1 256 7 7 (12544)
I0717 11:56:39.953145 16526 net.cpp:165] Memory required for data: 5527816640
I0717 11:56:39.953147 16526 layer_factory.hpp:77] Creating layer roi_pool/p5
I0717 11:56:39.953155 16526 net.cpp:106] Creating Layer roi_pool/p5
I0717 11:56:39.953158 16526 net.cpp:454] roi_pool/p5 <- newC5_newC5_0_split_2
I0717 11:56:39.953163 16526 net.cpp:454] roi_pool/p5 <- rois/p5
I0717 11:56:39.953167 16526 net.cpp:411] roi_pool/p5 -> roi_pool/p5
I0717 11:56:39.953172 16526 roi_pooling_layer.cpp:30] Spatial scale: 0.0625
I0717 11:56:39.953220 16526 net.cpp:150] Setting up roi_pool/p5
I0717 11:56:39.953233 16526 net.cpp:157] Top shape: 1 256 7 7 (12544)
I0717 11:56:39.953235 16526 net.cpp:165] Memory required for data: 5527866816
I0717 11:56:39.953239 16526 layer_factory.hpp:77] Creating layer all_pool
I0717 11:56:39.953248 16526 net.cpp:106] Creating Layer all_pool
I0717 11:56:39.953253 16526 net.cpp:454] all_pool <- roi_pool/p2
I0717 11:56:39.953256 16526 net.cpp:454] all_pool <- roi_pool/p3
I0717 11:56:39.953260 16526 net.cpp:454] all_pool <- roi_pool/p4
I0717 11:56:39.953263 16526 net.cpp:454] all_pool <- roi_pool/p5
I0717 11:56:39.953269 16526 net.cpp:411] all_pool -> rcnn_pool
I0717 11:56:39.953305 16526 net.cpp:150] Setting up all_pool
I0717 11:56:39.953317 16526 net.cpp:157] Top shape: 4 256 7 7 (50176)
I0717 11:56:39.953321 16526 net.cpp:165] Memory required for data: 5528067520
I0717 11:56:39.953325 16526 layer_factory.hpp:77] Creating layer rcnn_fc6
I0717 11:56:39.953356 16526 net.cpp:106] Creating Layer rcnn_fc6
I0717 11:56:39.953364 16526 net.cpp:454] rcnn_fc6 <- rcnn_pool
I0717 11:56:39.953371 16526 net.cpp:411] rcnn_fc6 -> rcnn_fc6
I0717 11:56:40.321632 16526 net.cpp:150] Setting up rcnn_fc6
I0717 11:56:40.321691 16526 net.cpp:157] Top shape: 4 4096 (16384)
I0717 11:56:40.321696 16526 net.cpp:165] Memory required for data: 5528133056
I0717 11:56:40.321709 16526 layer_factory.hpp:77] Creating layer relu6
I0717 11:56:40.321725 16526 net.cpp:106] Creating Layer relu6
I0717 11:56:40.321733 16526 net.cpp:454] relu6 <- rcnn_fc6
I0717 11:56:40.321741 16526 net.cpp:397] relu6 -> rcnn_fc6 (in-place)
I0717 11:56:40.322875 16526 net.cpp:150] Setting up relu6
I0717 11:56:40.322897 16526 net.cpp:157] Top shape: 4 4096 (16384)
I0717 11:56:40.322901 16526 net.cpp:165] Memory required for data: 5528198592
I0717 11:56:40.322906 16526 layer_factory.hpp:77] Creating layer drop6
I0717 11:56:40.322919 16526 net.cpp:106] Creating Layer drop6
I0717 11:56:40.322939 16526 net.cpp:454] drop6 <- rcnn_fc6
I0717 11:56:40.322945 16526 net.cpp:397] drop6 -> rcnn_fc6 (in-place)
I0717 11:56:40.322996 16526 net.cpp:150] Setting up drop6
I0717 11:56:40.323009 16526 net.cpp:157] Top shape: 4 4096 (16384)
I0717 11:56:40.323012 16526 net.cpp:165] Memory required for data: 5528264128
I0717 11:56:40.323016 16526 layer_factory.hpp:77] Creating layer fc7
I0717 11:56:40.323026 16526 net.cpp:106] Creating Layer fc7
I0717 11:56:40.323030 16526 net.cpp:454] fc7 <- rcnn_fc6
I0717 11:56:40.323036 16526 net.cpp:411] fc7 -> fc7
I0717 11:56:40.442184 16526 net.cpp:150] Setting up fc7
I0717 11:56:40.442242 16526 net.cpp:157] Top shape: 4 4096 (16384)
I0717 11:56:40.442247 16526 net.cpp:165] Memory required for data: 5528329664
I0717 11:56:40.442260 16526 layer_factory.hpp:77] Creating layer relu7
I0717 11:56:40.442276 16526 net.cpp:106] Creating Layer relu7
I0717 11:56:40.442283 16526 net.cpp:454] relu7 <- fc7
I0717 11:56:40.442292 16526 net.cpp:397] relu7 -> fc7 (in-place)
I0717 11:56:40.442613 16526 net.cpp:150] Setting up relu7
I0717 11:56:40.442631 16526 net.cpp:157] Top shape: 4 4096 (16384)
I0717 11:56:40.442634 16526 net.cpp:165] Memory required for data: 5528395200
I0717 11:56:40.442638 16526 layer_factory.hpp:77] Creating layer drop7
I0717 11:56:40.442648 16526 net.cpp:106] Creating Layer drop7
I0717 11:56:40.442653 16526 net.cpp:454] drop7 <- fc7
I0717 11:56:40.442658 16526 net.cpp:397] drop7 -> fc7 (in-place)
I0717 11:56:40.442704 16526 net.cpp:150] Setting up drop7
I0717 11:56:40.442718 16526 net.cpp:157] Top shape: 4 4096 (16384)
I0717 11:56:40.442720 16526 net.cpp:165] Memory required for data: 5528460736
I0717 11:56:40.442724 16526 layer_factory.hpp:77] Creating layer fc7_drop7_0_split
I0717 11:56:40.442730 16526 net.cpp:106] Creating Layer fc7_drop7_0_split
I0717 11:56:40.442734 16526 net.cpp:454] fc7_drop7_0_split <- fc7
I0717 11:56:40.442741 16526 net.cpp:411] fc7_drop7_0_split -> fc7_drop7_0_split_0
I0717 11:56:40.442749 16526 net.cpp:411] fc7_drop7_0_split -> fc7_drop7_0_split_1
I0717 11:56:40.442801 16526 net.cpp:150] Setting up fc7_drop7_0_split
I0717 11:56:40.442814 16526 net.cpp:157] Top shape: 4 4096 (16384)
I0717 11:56:40.442818 16526 net.cpp:157] Top shape: 4 4096 (16384)
I0717 11:56:40.442821 16526 net.cpp:165] Memory required for data: 5528591808
I0717 11:56:40.442824 16526 layer_factory.hpp:77] Creating layer cls_score
I0717 11:56:40.442836 16526 net.cpp:106] Creating Layer cls_score
I0717 11:56:40.442840 16526 net.cpp:454] cls_score <- fc7_drop7_0_split_0
I0717 11:56:40.442848 16526 net.cpp:411] cls_score -> cls_score
I0717 11:56:40.445083 16526 net.cpp:150] Setting up cls_score
I0717 11:56:40.445099 16526 net.cpp:157] Top shape: 4 21 (84)
I0717 11:56:40.445103 16526 net.cpp:165] Memory required for data: 5528592144
I0717 11:56:40.445111 16526 layer_factory.hpp:77] Creating layer bbox_pred
I0717 11:56:40.445117 16526 net.cpp:106] Creating Layer bbox_pred
I0717 11:56:40.445122 16526 net.cpp:454] bbox_pred <- fc7_drop7_0_split_1
I0717 11:56:40.445129 16526 net.cpp:411] bbox_pred -> bbox_pred
I0717 11:56:40.454416 16526 net.cpp:150] Setting up bbox_pred
I0717 11:56:40.454438 16526 net.cpp:157] Top shape: 4 84 (336)
I0717 11:56:40.454442 16526 net.cpp:165] Memory required for data: 5528593488
I0717 11:56:40.454449 16526 layer_factory.hpp:77] Creating layer loss_cls
I0717 11:56:40.454457 16526 net.cpp:106] Creating Layer loss_cls
I0717 11:56:40.454461 16526 net.cpp:454] loss_cls <- cls_score
I0717 11:56:40.454468 16526 net.cpp:454] loss_cls <- labels
I0717 11:56:40.454473 16526 net.cpp:411] loss_cls -> loss_cls
…
